DQN/weights/checkpoint.pth (torch_old, 37478 bytes, 6 tensors)

fc1.weight f4 [128, 37]
0	0xbe6e73da	-0.23286381
1	0x3d410dcb	0.047132295
2	0xbe2b3758	-0.1672033
3	0xbc1df85d	-0.009641734
4	0x3d46a9a1	0.048501614
5	0xbd21210d	-0.03933816
6	0xbc6c91d6	-0.014439067
7	0xbd53645b	-0.05160938
8	0x3e0f1a52	0.13974884
9	0xbe83f037	-0.25769207
10	0xbee8c70d	-0.45464364
11	0xbe8038d5	-0.2504336
12	0x3dfb5e3a	0.12273832
13	0xbdf830a2	-0.12118651
14	0xbeb0ca03	-0.34529123
15	0x3e1fa287	0.15589343
16	0xbd855200	-0.06509781
17	0xbe361a5f	-0.17783497
18	0xbeb1e2d6	-0.34743375
19	0xbddd5f65	-0.10809211
20	0xbd92a439	-0.07160229
21	0x3e8e791a	0.27826768
22	0xbea607d2	-0.3242784
23	0xbd3dd47a	-0.04634521
24	0x3d8dbcd5	0.069207825
25	0xbd90625b	-0.0705001
26	0xbe0e918b	-0.13922708
27	0x3e6f4243	0.2336512
28	0xbf11be8b	-0.5693137
29	0xbd68650b	-0.056736987
30	0xbe956490	-0.29178286
31	0x3e4a1dad	0.19737883
32	0xbe42ad98	-0.19011533
33	0xbf05af87	-0.5222096
34	0xbe4b346e	-0.19844219
35	0xbe56f9cc	-0.20993727
36	0xbca0d88f	-0.019634513
37	0x3de405b4	0.111339
38	0x3e43d5d8	0.19124544
39	0xbdb4e079	-0.08831877
40	0xbc706939	-0.014673525
41	0xbe0da37a	-0.13831893
42	0xbe3e33d8	-0.18574464
43	0xbd4753b1	-0.0486638
44	0xbd6c2feb	-0.057662886
45	0xbe0a37b4	-0.13497812
46	0xbda33e4f	-0.07970869
47	0x3dfd522d	0.123691894
48	0xbc74926f	-0.014927491
49	0xbe29f0e3	-0.16595797
50	0x3d09817a	0.033570744
51	0xbe334f51	-0.17510726
52	0x3deaed20	0.11471009
53	0x3c8cd6c8	0.01719226
54	0xbdca902e	-0.09890781
55	0xbdadf7e1	-0.08494545
56	0xbdc0cb3f	-0.09413766
57	0xbeb5b4ba	-0.35489446
58	0x3c2a04dd	0.010377136
59	0xbd7920a5	-0.060822148
60	0xbd534816	-0.05158242
61	0x3e7da123	0.247685
62	0xbe915883	-0.28387842
63	0x3d85b4a9	0.06528599
64	0x3dd18c69	0.10231859
65	0x3d98981f	0.0745089
66	0xbd079aec	-0.03310673
67	0xbe24febb	-0.16112797
68	0x3e1d24b5	0.15346034
69	0x3e3a88df	0.18216275
70	0xbe55d83e	-0.20883271
71	0x3e09e285	0.13465317
72	0x3d65064b	0.055914205
73	0x3c54a8c4	0.01297969
74	0x3cf3b6c7	0.029750241
75	0x3e39f1a0	0.18158579
76	0x3dd9c5f8	0.10633463
77	0x3d3465a3	0.04404224
78	0x3cf669d2	0.030079756
79	0xbf3d1868	-0.73865366
80	0x3e1c44ce	0.15260622
81	0x3e900ca1	0.28134635
82	0x3cf78a0b	0.030217191
83	0xbf6df140	-0.92946243
84	0x3da58ca4	0.08083466
85	0xbccd3a7a	-0.025052298
86	0xbcb905c3	-0.022585755
87	0x3b568693	0.003273402
88	0xbcaaf1f8	-0.020867333
89	0xbe31dedf	-0.17370175
90	0x3d828e6e	0.063748226
91	0x3e434bd1	0.1907189
92	0x3e11351a	0.14180413
93	0x3da1eec3	0.07906868
94	0xbe3abd0d	-0.1823618
95	0xbdcd0360	-0.10010409
96	0x3d5f9801	0.05458832
97	0x3e242764	0.16030651
98	0xbd226284	-0.039644733
99	0xbf0a7f0e	-0.5410012
100	0x3e8e41c6	0.27784556
101	0x3dfc21bb	0.12311121
102	0x3cf84992	0.030308519
103	0xbf17e8a9	-0.59339386
104	0xbe8e00b5	-0.27734914
105	0x3c30b60d	0.010785592
106	0x3c4903df	0.012268989
107	0xbd32abb6	-0.043620788
108	0xbe9edfcb	-0.31030115
109	0xbd45d62b	-0.04829995
110	0x3c55cf60	0.01304993
111	0x3ed296cd	0.41130677
112	0xbf10da37	-0.5658297
113	0xbe6a5c37	-0.2288674
114	0xbeb4a675	-0.35283247
115	0xbfe70686	-1.8048866
116	0xbd35a477	-0.0443463
117	0xbce9631c	-0.028489642
118	0x3d90658a	0.07050617
119	0x3dbc196a	0.09184535
120	0x3e2df7d3	0.16989069
121	0x3b2b786c	0.0026164306
122	0x3d3eb461	0.04655874
123	0x3b0f86bf	0.0021900383
124	0x3bedc403	0.0072560324
125	0xbdaa9797	-0.08329695
126	0xbe11b47f	-0.1422901
127	0x3d878586	0.066172644
128	0xbd21890f	-0.03943735
129	0xbd135239	-0.035967086
130	0x3e36e77d	0.17861743
131	0x3df0690e	0.117387876
132	0xbc8fac4d	-0.017538214
133	0xbd4beb30	-0.04978484
134	0x3c7b705f	0.015346616
135	0xbd8eec55	-0.069786705
136	0x3ced55bc	0.028971545
137	0xba7ee977	-0.000972412
138	0x3c2ff736	0.010740092
139	0x3deb6603	0.114940666
140	0x3e137efe	0.14403912
141	0x3dcf8c16	0.10134141
142	0x3e20f3e2	0.15718034
143	0x3d72c6ae	0.059271507
144	0xbdd0d6a6	-0.10197191
145	0xbde48efd	-0.11160085
146	0x3c6915a7	0.014226354
147	0x3c393224	0.011303458
148	0xbd8fa548	-0.07013947
149	0xbe9aa41f	-0.3020334
150	0xbe082e6d	-0.1329896
151	0xbdae3a7a	-0.08507247
152	0xbe00b71a	-0.12569848
153	0x3de05588	0.10953814
154	0xbe18f16b	-0.14935844
155	0xbe733a53	-0.23752718
156	0x3e31cba0	0.17362833
157	0x3e89889b	0.26862034
158	0x3b9ae01e	0.004726424
159	0xbd5e928b	-0.054338973
160	0xbe95b801	-0.29241946
161	0xbd2334bb	-0.03984521
162	0x3bd93bfe	0.006629466
163	0xbe77508a	-0.24151817
164	0x3d0ec75e	0.0348581
165	0xbd10cc2c	-0.035350963
166	0xbd5349c2	-0.051584013
167	0x3cf2fde7	0.029662086
168	0x3cab316d	0.020897591
169	0xbea80e57	-0.3282344
170	0x3d7d578e	0.061851077
171	0xbe10be12	-0.14135006
172	0x3e47427f	0.1945896
173	0x3cff3c95	0.031156817
174	0xbd8e759a	-0.069560245
175	0xbca953f1	-0.02066991
176	0x3de31605	0.11088184
177	0x3e78a921	0.24283268
178	0x3e6d5fec	0.23181123
179	0xbe9cff2f	-0.3066344
180	0xbea38e22	-0.31944376
181	0x3d3546e7	0.04425707
182	0x3e3247f8	0.17410266
183	0x3d0ca89c	0.034340486
184	0x3ce6d8d0	0.028179556
185	0xbd845323	-0.064611696
186	0xbd720910	-0.059090674
187	0xbdc53be1	-0.096305616
188	0xbcda47ab	-0.026645502
189	0x3c8e8907	0.017399324
190	0x3c17709c	0.009243157
191	0x3e32786b	0.17428748
192	0xbd12d510	-0.035847723
193	0xbd77e65e	-0.06052243
194	0xbe8d91ef	-0.276504
195	0x3d031379	0.032000992
196	0xbe87da46	-0.26533717
197	0xbe035e89	-0.12829031
198	0xbe7cc1ff	-0.24683379
199	0xbdb825fe	-0.089916214
200	0x3da6c6dc	0.08143398
201	0xbda84aff	-0.08217429
202	0xbe86cec0	-0.26329613
203	0xbdeca204	-0.115543395
204	0xbe3ddc00	-0.18540955
205	0x3dfd1312	0.12357153
206	0xbd5fa976	-0.05460497
207	0x3d490f89	0.04908708
208	0xbc923525	-0.017847607
209	0xbddaa0ff	-0.10675239
210	0xbe82f698	-0.2557876
211	0xbea2b6a1	-0.3177996
212	0x3e5f6f7f	0.21819876
213	0x3dea8091	0.11450303
214	0xbe1ed951	-0.15512587
215	0x3d3c0b54	0.04590924
216	0xbd9c63cb	-0.076362215
217	0xbeaa03ec	-0.33206117
218	0x3dc00a41	0.09376956
219	0xbe5e8e36	-0.21733937
220	0xbdc48b7e	-0.095969185
221	0x3daad31f	0.083410494
222	0x3e400119	0.18750419
223	0xbd618f52	-0.05506832
224	0xbe156100	-0.14587784
225	0xbe0c6197	-0.13709103
226	0xbdb72dad	-0.08944259
227	0xbdc5d604	-0.09659961
228	0x3c2c8fc1	0.0105323205
229	0xbc17ef4c	-0.009273361
230	0xbd29933b	-0.041400176
231	0xbc728482	-0.0148021
232	0xbd13c4ea	-0.036076464
233	0x3e1482e5	0.14503057
234	0x3dea8aad	0.114522316
235	0xbd95d4ff	-0.073160164
236	0xbd768f1c	-0.060195073
237	0xbd86b5ab	-0.06577619
238	0xbd889fce	-0.06671105
239	0xbc8e63a9	-0.017381506
240	0x3d85fbe7	0.06542187
241	0x3cae7e75	0.021300534
242	0xbd740c76	-0.059582196
243	0x3e0b7a8c	0.13620967
244	0x3d87b2fc	0.066259354
245	0xbdaaca4b	-0.083393656
246	0x3e21114c	0.15729254
247	0xbe26483d	-0.16238494
248	0x3c80f782	0.01574302
249	0xbcce67ae	-0.025195923
250	0x3d1ee70e	0.03879457
251	0xbc347ac8	-0.011015601
252	0x3e210f22	0.15728429
253	0x3c80c1a6	0.015717339
254	0xbd813a40	-0.063099384
255	0x3d2dc4a7	0.04242387

fc1.bias f4 [128]
0	0xbdc6b503	-0.09702494
1	0xbc96993e	-0.018383618
2	0xbd8f9e02	-0.070125595
3	0xbcd8d278	-0.026467547
4	0xbdc6c170	-0.09704864
5	0xbe29247d	-0.16517825
6	0x3de73867	0.11290055
7	0x3e088b66	0.13334426
8	0xbdbf8b69	-0.09352762
9	0x3e2e3031	0.17010571
10	0xbd2c4b63	-0.042064082
11	0xbce83c55	-0.028349081
12	0xbd54a36e	-0.05191367
13	0x3d064088	0.032776386
14	0x3ced2761	0.028949441
15	0xbdd27722	-0.10276629
16	0x3de41b30	0.11137998
17	0xbde31f87	-0.11089998
18	0x3c233a0f	0.009962573
19	0x3ce689ed	0.02814194
20	0xbd242f40	-0.040084124
21	0x3df7271b	0.12068006
22	0x3e3099ce	0.17246172
23	0xbd2d2701	-0.042273525
24	0xbceb255f	-0.028704343
25	0x3e372774	0.17886144
26	0x3e1d9396	0.15388331
27	0xbe21e29d	-0.15809102
28	0xbba9c5c8	-0.005181048
29	0xbd49fb45	-0.049311895
30	0x3e39de30	0.18151164
31	0x3dfde0b6	0.12396376
32	0xbde813be	-0.113318905
33	0xbb732947	-0.003710346
34	0x3cc598d6	0.02412073
35	0xbe4f40c4	-0.2023955
36	0xbc091d67	-0.0083688265
37	0x3de91313	0.11380591
38	0x3d6b38bb	0.05742715
39	0x3d02798f	0.03185421
40	0x3d26c315	0.04071339
41	0x3defd1d7	0.11709946
42	0x3e1d0693	0.15334539
43	0xbd0300fb	-0.031983357
44	0x3d595673	0.05306096
45	0xbdd07140	-0.10177851
46	0x3dca7c6e	0.09887014
47	0xbdc2b243	-0.09506657
48	0xbe3b5096	-0.1829246
49	0xbd19e548	-0.037572175
50	0x3e0124f1	0.12611748
51	0x3d6a4eb2	0.057203956
52	0xbcd770c0	-0.02629888
53	0xbd0c30ba	-0.034226157
54	0x3cc6fe5f	0.024291215
55	0x3d1eda32	0.038782306
56	0xbdd77655	-0.10520617
57	0xbe0b0c64	-0.13578945
58	0x3c8b8b69	0.01703425
59	0xbde9b1b1	-0.11410845
60	0xbdb5c420	-0.088752985
61	0x3d955bce	0.07292901
62	0x3e68b7db	0.22726385
63	0xbe123ff3	-0.14282207
64	0x3e4c1499	0.19929732
65	0xbc58c359	-0.013230168
66	0x3d3d7287	0.0462518
67	0xbdbc66e4	-0.09199312
68	0xbe223dba	-0.1584386
69	0x3c98b9dc	0.018643312
70	0x3d957035	0.072967924
71	0xbe187490	-0.14888215
72	0x3e39a19c	0.18128055
73	0xbe5137fe	-0.20431516
74	0xbd195a81	-0.037439827
75	0xbd2ad1d1	-0.041704003
76	0x3dfad0d4	0.12246862
77	0xbe11ee76	-0.14251122
78	0x3ae01e7e	0.0017098931
79	0x3cc582b5	0.024110178
80	0xbd856f13	-0.06515326
81	0x3d516324	0.05111994
82	0x3e2f51fe	0.17121121
83	0xbd8e8607	-0.069591574
84	0xbd5289ed	-0.051401068
85	0x3e4a6e7f	0.19768713
86	0x3e0f4726	0.13991985
87	0xbe092e39	-0.13396539
88	0x3c21b1a2	0.009869011
89	0x3d0b0c80	0.033947468
90	0x3e16546b	0.1468064
91	0xbc0961a9	-0.0083851
92	0xbddc811b	-0.107668124
93	0xbe48cde5	-0.19609793
94	0xbd972909	-0.07380874
95	0x3d873b7b	0.06603142
96	0xbd3e39c4	-0.04644181
97	0xbe3f802f	-0.18701242
98	0xbcb7285a	-0.022358108
99	0x3dd0bf1b	0.101927005
100	0xbdcf8320	-0.10132432
101	0xbd80db6d	-0.06291852
102	0x3dfc80d7	0.12329262
103	0x3dd90435	0.105965056
104	0xbe6d658e	-0.23183271
105	0xbe73a51e	-0.23793456
106	0xbc9e573e	-0.01932871
107	0x3df9e0e5	0.12201098
108	0xbe1bd33b	-0.15217297
109	0xbc9c5a29	-0.01908596
110	0x3da86a5d	0.08223412
111	0xbce47021	-0.027885498
112	0xbddb7b41	-0.10716868
113	0x3bf79957	0.0075561213
114	0x3ce3a0fe	0.027786728
115	0x3e781167	0.24225388
116	0x3d857133	0.06515732
117	0x3e63db1c	0.22251552
118	0x3d87f223	0.06637981
119	0xbddd77ee	-0.108138904
120	0x3d613cc8	0.054989606
121	0x3db88018	0.09008807
122	0xbce5f485	-0.028070698
123	0xbdd5ed25	-0.10445622
124	0xbcfd1c0d	-0.030897165
125	0x3d82843c	0.06372878
126	0x3d439f98	0.047759622
127	0x3b48e3d1	0.0030653367

fc2.weight f4 [32, 128]
0	0x3b863eea	0.0040968554
1	0xbe3074e6	-0.17232093
2	0xbbaf5f6a	-0.0053519504
3	0xbe796ba8	-0.24357474
4	0x3ddeb718	0.10874766
5	0x3df9e92b	0.122026764
6	0xbd91d480	-0.07120609
7	0x3e8071b8	0.2508676
8	0x3eb0314d	0.34412614
9	0x3e1d79fb	0.15378563
10	0x3e15acb7	0.14616667
11	0x3c64763d	0.013944206
12	0x3f06f33b	0.5271489
13	0xbd3ad04e	-0.04560881
14	0xbe165a51	-0.1468289
15	0xbd23fd55	-0.040036518
16	0xbd274d5e	-0.040845267
17	0x3da3c176	0.07995884
18	0xbdf222ce	-0.11823045
19	0xbead349c	-0.338292
20	0x3cc3e5fd	0.023913378
21	0x3dbedf98	0.09319991
22	0xbdcf37ca	-0.10118063
23	0x3cfb45d8	0.030672953
24	0xbe18769b	-0.14888994
25	0x3e4c618c	0.19959086
26	0xbe8b440f	-0.27200362
27	0xbd922a60	-0.07136989
28	0xbd08a358	-0.0333589
29	0x3da8253f	0.08210229
30	0xbcad8519	-0.02118163
31	0x3cb9d548	0.022684708
32	0x3dbbb47d	0.09165285
33	0x3d724701	0.059149746
34	0x3d4e3ac0	0.050348997
35	0xbe1fe68f	-0.15615295
36	0x3e37c603	0.17946629
37	0xbd91ac94	-0.07112995
38	0x3f2d4901	0.6768952
39	0x3d98c0db	0.07458659
40	0x3db791ee	0.08963381
41	0xbc8f65c0	-0.017504573
42	0xbf013e22	-0.5048543
43	0x3d6d5282	0.057940014
44	0x3e52b6c1	0.20577528
45	0xbd8815a0	-0.0664475
46	0x3c899ea4	0.016799279
47	0xbe08e04a	-0.1336681
48	0x3dc51d07	0.09624677
49	0xbe84be27	-0.25926325
50	0xbd013d61	-0.031552676
51	0xbd96c78b	-0.073622786
52	0xbd57ee1c	-0.052717313
53	0xbf763636	-0.9617647
54	0x3e5d1da2	0.21593335
55	0x3f02099c	0.5079591
56	0xbc963531	-0.01833591
57	0xbd730398	-0.0593296
58	0x3dba3e2d	0.0909389
59	0xbdbc3675	-0.09190074
60	0xbe14aa1f	-0.14518021
61	0xbd55e8a4	-0.052223817
62	0x3d1016a5	0.035177846
63	0x3d75fb49	0.060054097
64	0xbd28eeb3	-0.041243266
65	0x3e09eea4	0.1346994
66	0x3e61c8c4	0.22049242
67	0xbdc38170	-0.095461726
68	0x3e31ff13	0.1738246
69	0x3cbabece	0.02279606
70	0x3de601c7	0.11230808
71	0x3d76e8b7	0.060280528
72	0x3c460028	0.012084998
73	0xbe345faf	-0.17614625
74	0xbe266777	-0.16250406
75	0x3d8c0376	0.068365976
76	0xbda9ac95	-0.082848705
77	0xbd5e1e51	-0.05422813
78	0x3bbccf20	0.005761996
79	0x3e397dff	0.1811447
80	0x3d5ef44f	0.05443221
81	0x3d283e5b	0.04107509
82	0x3c9f93f6	0.019479733
83	0xbcd19f3d	-0.025588626
84	0xbe097648	-0.13424027
85	0xbb38c66e	-0.0028194445
86	0x3de5ae32	0.11214866
87	0x3cf4de6b	0.029891213
88	0xbecf127a	-0.40443784
89	0x3e14510d	0.14484043
90	0x3dddccad	0.108300544
91	0xbdd83a42	-0.10557987
92	0xbd0a820c	-0.03381543
93	0xbd1c5299	-0.03816471
94	0x3d94c4d2	0.07264103
95	0xbe1118b4	-0.1416958
96	0xbc05bcd2	-0.008162694
97	0xbae68ab9	-0.001758895
98	0xbebbea9b	-0.36702427
99	0xbcc2826e	-0.023743834
100	0x3e0130ee	0.12616321
101	0xbe009b22	-0.12559178
102	0xbeb1b643	-0.34709367
103	0xbc938874	-0.018009402
104	0xbd97cf9d	-0.07412646
105	0xbd3003b9	-0.0429723
106	0x3e1376dd	0.14400811
107	0xbdd9841b	-0.106209
108	0x3d99b205	0.07504658
109	0xbe644435	-0.22291644
110	0x3d295621	0.041341905
111	0x3d7e20ec	0.062043115
112	0xbd6b7ec5	-0.057493944
113	0x3dc1cfde	0.09463476
114	0x3d24354a	0.040089883
115	0xbe09ce0a	-0.13457504
116	0xbcb768ff	-0.022388933
117	0x3d42d6e4	0.047568217
118	0xbd6d5ce6	-0.057949923
119	0xbc971088	-0.0184405
120	0x3d710040	0.05883813
121	0x3c2b4ef1	0.010455833
122	0x3d900694	0.07032505
123	0xbe484b1f	-0.19559906
124	0xbdafd4d2	-0.08585514
125	0xbe3e0516	-0.18556628
126	0x3d9c2ebc	0.076261014
127	0x3df34cda	0.11879893
128	0x3d8cf3a0	0.06882405
129	0xbe19be75	-0.1501406
130	0xbc6d3a3b	-0.014479215
131	0xbdb1ac26	-0.08675413
132	0xbddb98d5	-0.1072251
133	0x3c1cc933	0.009569454
134	0xbe414225	-0.18872888
135	0xbea70278	-0.3261907
136	0xbcf0343c	-0.029321782
137	0xbd2b909d	-0.04188596
138	0xbda2cfec	-0.07949814
139	0x3dc12343	0.09430554
140	0x3d111e0d	0.03542905
141	0x3dedc2ee	0.116094455
142	0xbd7e58d4	-0.06209643
143	0xbe397321	-0.18110324
144	0xbdb62ce1	-0.08895279
145	0x3dd17edc	0.10229275
146	0xbd8049cb	-0.06264075
147	0x3e5bcc66	0.2146469
148	0x3d2eeec0	0.04270816
149	0xbdcae662	-0.09907223
150	0x3c839ad9	0.016065048
151	0x3e727479	0.23677243
152	0x3dd92ff0	0.106048465
153	0xbb0740c7	-0.0020637976
154	0xbc2c2de2	-0.010508986
155	0xbd62948c	-0.055317447
156	0x3c1eec7d	0.009699938
157	0xbe41ef0d	-0.18938847
158	0xbb1b21bd	-0.0023671233
159	0xbeb66826	-0.35626334
160	0xbe5b75db	-0.21431677
161	0xbe980ae5	-0.29695812
162	0xbe15b8d6	-0.1462129
163	0xbf0039d6	-0.5008825
164	0xbd324376	-0.043521367
165	0x3dd14715	0.10218636
166	0xbe2395f7	-0.15975176
167	0xbe138431	-0.14405896
168	0xbd839e20	-0.06426644
169	0xbe5bc948	-0.21463501
170	0xbc9f461b	-0.019442609
171	0x3954adae	0.00020282596
172	0xbda69cfd	-0.08135412
173	0xbe0dce71	-0.13848282
174	0xbd731655	-0.05934747
175	0x3c57dc49	0.013175079
176	0xbd93ecd2	-0.07222904
177	0xba02c826	-0.0004988931
178	0x3d325ad2	0.043543644
179	0x3d82186f	0.063523166
180	0xbc3330d4	-0.0109369345
181	0xbe02dba0	-0.12779093
182	0x3d837114	0.06418052
183	0xbdc9e2bf	-0.098577015
184	0xbc7defce	-0.015499068
185	0xbe991613	-0.29899654
186	0xbe0fffd7	-0.14062439
187	0x3f158013	0.5839855
188	0xbd341f6c	-0.04397528
189	0x3da9ed39	0.082972
190	0x3d4afaa9	0.049555454
191	0xbe40ee3c	-0.18840879
192	0x3dc69a9a	0.09697457
193	0xbe5c0511	-0.21486308
194	0x3d32f69a	0.04369221
195	0xbbae9ada	-0.0053285183
196	0xbe15dab3	-0.14634208
197	0xbd419aaf	-0.04726666
198	0xbe39619c	-0.18103641
199	0x3de05742	0.10954143
200	0xbdbccacb	-0.09218367
201	0xbd0a69a0	-0.033792138
202	0xbd5c53fc	-0.05379103
203	0xbe72ca55	-0.23709996
204	0xbe1bb13f	-0.15204333
205	0xbd8152c3	-0.06314614
206	0xbd99a19f	-0.0750153
207	0x3dea3d64	0.114374906
208	0xbe92692e	-0.2859587
209	0xbe140646	-0.14455518
210	0xbdb87581	-0.09006787
211	0xbd17530f	-0.036944445
212	0xbd9b1756	-0.0757281
213	0xbe4a2fbb	-0.1974477
214	0x3d292824	0.041298047
215	0xba8fbde9	-0.0010966632
216	0x3e8c4ce0	0.274024
217	0xbe0da048	-0.13830674
218	0x3de8067a	0.1132936
219	0xbdc26ebf	-0.094937794
220	0xbc8f25a9	-0.017474012
221	0xbea363c9	-0.31912068
222	0x3db9bbd0	0.090690255
223	0xbe0cb743	-0.13741784
224	0x3d355c73	0.04427762
225	0xbd848058	-0.06469792
226	0xbd82e1fd	-0.0639076
227	0xbe18c832	-0.14920118
228	0x3d19d690	0.03755814
229	0x3da15e09	0.07879264
230	0x3dc01cd6	0.093805
231	0xbdaca21a	-0.08429356
232	0xbd276333	-0.040866088
233	0xbe93de9c	-0.28880775
234	0x3da8d9c5	0.08244661
235	0x3e2487d6	0.16067442
236	0xbea176c9	-0.31535938
237	0xbd5eea1b	-0.05442248
238	0x3c122128	0.008919038
239	0xbc944072	-0.018097136
240	0xbe062996	-0.13101801
241	0xbd90bc43	-0.07067158
242	0xbe41dc03	-0.18931584
243	0xbe2074bf	-0.15669535
244	0x3db14c9c	0.0865719
245	0x3e13f188	0.14447606
246	0x3e0ede7f	0.13952063
247	0xbdb43e61	-0.0880096
248	0x3c165dd5	0.009177645
249	0xbeab68e2	-0.33478457
250	0xbd1e4b01	-0.038645748
251	0xbe8cc137	-0.2749116
252	0xbda2a32a	-0.07941277
253	0x3dc90904	0.09816173
254	0x3dc3f5e1	0.09568382
255	0xbd21b813	-0.039482187

fc2.bias f4 [32]
0	0x3d9002b8	0.070317686
1	0xbdce8ab4	-0.10085049
2	0x3ee9e008	0.45678735
3	0xbdf45f8a	-0.11932285
4	0x3dc9a38c	0.09845647
5	0x3ca44cba	0.020056117
6	0x3da8535a	0.08219023
7	0x3deaac98	0.11458701
8	0x3d9f89cd	0.07789955
9	0x3d83c11d	0.06433318
10	0x3d551565	0.052022357
11	0xbc1687d4	-0.009187657
12	0xbdb79bd3	-0.08965268
13	0x3e0a4104	0.13501364
14	0xbce10740	-0.027469277
15	0x3ec21bd3	0.37911853
16	0x3ddf7a8c	0.10912046
17	0xbccca345	-0.024980197
18	0x3cbc2239	0.022965537
19	0x3dfbc8c7	0.122941546
20	0x3e3a3fa6	0.18188342
21	0xbd975cff	-0.073907845
22	0x3d385fb4	0.045013145
23	0x392a3e94	0.00016235776
24	0x3c00ff84	0.00787342
25	0xbdabf317	-0.08395975
26	0x3d38dea3	0.045134198
27	0x3e011fd0	0.12609792
28	0x3d976420	0.07392144
29	0x3e11b1b2	0.14227942
30	0x3d972bd9	0.0738141
31	0xbd586b98	-0.052836984

fc3.weight f4 [4, 32]
0	0x3e46d2bf	0.19416331
1	0xbe07be33	-0.13256149
2	0x3e51de56	0.2049497
3	0xbe83eeb2	-0.25768048
4	0x3e9734df	0.29532525
5	0xbf04436b	-0.5166537
6	0x3d816daf	0.063197486
7	0x3ecdcd04	0.40195477
8	0x3e007e75	0.1254824
9	0x3d3b4cfe	0.045727722
10	0x3c59c5c2	0.013291778
11	0xbf315377	-0.6926798
12	0x3d76c8dc	0.06025015
13	0x3d6e744a	0.05821637
14	0x3e59908c	0.21246547
15	0x3e2caf81	0.16863824
16	0xbbd46fc8	-0.006483052
17	0xbe1ac7fc	-0.1511535
18	0x3e8ed75c	0.2789868
19	0xbeaaae6b	-0.33336195
20	0x3dd8a8ce	0.10579072
21	0x3e499bb6	0.19688305
22	0x3d4f2c63	0.05057944
23	0x3dd92077	0.10601895
24	0x3e489bb9	0.19590653
25	0x3e3e0a06	0.18558511
26	0x3f0be0a7	0.5463967
27	0x3ea27394	0.31728804
28	0x3e6439ac	0.22287625
29	0x3e20e371	0.15711762
30	0x3e1626cd	0.14663239
31	0x3eadecf0	0.3396983
32	0x3e3f9bb2	0.18711737
33	0xbce0c689	-0.027438419
34	0x3e413e3a	0.18871394
35	0xbe25f86d	-0.16208048
36	0x3e1cc042	0.15307716
37	0xbe6a8968	-0.22903979
38	0x3d822823	0.06355312
39	0x3ea7cd38	0.32773757
40	0x3cf0b900	0.02938509
41	0x3e3d0eda	0.18462697
42	0xbd89ab36	-0.06722109
43	0xbc6354ae	-0.01387517
44	0xbc1d315f	-0.0095942905
45	0x3e1fa279	0.15589322
46	0x3eb91f2f	0.36156604
47	0x3e5f6b25	0.21818216
48	0xbd7e45a9	-0.06207815
49	0xbe2d1c57	-0.16905342
50	0x3eedc658	0.46440387
51	0xbbf8a42e	-0.007587931
52	0x3cc85175	0.024452904
53	0xbea3c69a	-0.31987458
54	0xbd3dccab	-0.046337765
55	0x3d4aef17	0.04954442
56	0x3e330a2f	0.17484353
57	0x3e7c7009	0.24652113
58	0x3ecb061a	0.39653093
59	0x3e8262a2	0.25465876
60	0x3e1e0061	0.15429832
61	0x3e04cfb9	0.12969865
62	0x3e67e4e8	0.22645915
63	0x3f0eee9a	0.5583283
64	0x3eb103c4	0.34573185
65	0x3deaadc7	0.11458927
66	0x3e4f7465	0.20259245
67	0x3c7dd5e8	0.015492894
68	0x3e328e8a	0.17437187
69	0x3d4863f6	0.048923455
70	0xbec08165	-0.3759872
71	0x3eb1dc5f	0.34738442
72	0x3e4574f4	0.19282895
73	0x3de1bed2	0.11022724
74	0x3ea40cc9	0.32041004
75	0xbee4db90	-0.44698763
76	0xbecf8cdc	-0.40537155
77	0x3e5f057a	0.21779433
78	0x3e62cff3	0.22149639
79	0x3e54fa92	0.2079871
80	0x3e16f82a	0.14743105
81	0xbeb5ce0f	-0.35508773
82	0x3eefe372	0.46853215
83	0xbf2be12f	-0.6714048
84	0x3d95c012	0.07312025
85	0xbe4bfba8	-0.19920218
86	0xbf0c00d0	-0.5468874
87	0x3e924f29	0.2857602
88	0x3df49cc9	0.11943967
89	0x3e96170d	0.2931446
90	0x3e77b1b0	0.24188876
91	0xbc137962	-0.009001108
92	0x3e1c91b6	0.1528996
93	0xbbfe577c	-0.007761894
94	0x3ed786f5	0.42095152
95	0xbc7dbe04	-0.015487198
96	0x3e763660	0.2404418
97	0xbc19135e	-0.009342996
98	0x3e937e80	0.2880745
99	0xbdb51d69	-0.088435
100	0x3eaace8a	0.33360702
101	0xbd8dff9b	-0.069335185
102	0x3e9f5026	0.31115836
103	0x3e2d03c9	0.16895975
104	0xbd499fd2	-0.049224682
105	0x3e4babde	0.19889781
106	0x3eb0a5e3	0.34501562
107	0xbe42512c	-0.18976277
108	0x3ecea9f4	0.4036404
109	0x3de302dc	0.1108453
110	0x3efbc461	0.49173263
111	0x3d411789	0.047141585
112	0x3df950e9	0.121736355
113	0xbe10739f	-0.14106606
114	0xbe3e13cb	-0.18562238
115	0xbe923197	-0.2855346
116	0xbce237ac	-0.027614437
117	0xbe9e545b	-0.30923733
118	0xbee917ed	-0.45526066
119	0x3ddaf8e0	0.106920004
120	0x3e8aafa1	0.2708712
121	0xbe5288b0	-0.20559955
122	0x3ee99602	0.4562226
123	0x3c0b1272	0.008488284
124	0x3e3b2cbd	0.18278785
125	0xbbf058b4	-0.007334793
126	0x3e54937c	0.20759386
127	0x3f1646af	0.58701605

fc3.bias f4 [4]
0	0x3e264484	0.16237074
1	0x3dedc2d6	0.11609428
2	0x3df5ac8d	0.11995802
3	0x3e6babf4	0.23014814
