MADDPG/actor_checkpoint.pth (torch_old, 876145 bytes, 6 tensors)

fc1.weight f4 [512, 24]
0.07149756 0.46285895 -0.011755408 0.16786385 -0.07053729 0.026473094 0.027937595 0.2069304
0.038923886 0.50239384 0.0029990668 0.1377102 -0.03671661 -0.26090086 0.027858738 0.08614597
0.10144788 0.47169298 0.06952001 0.003839629 0.088705406 -0.52862436 0.099317834 -0.012371204
0.24069622 0.12616412 0.076781176 0.23380503 -0.14124207 -0.25380108 0.07049772 0.21428177
0.25911903 0.245223 -0.02841193 0.06303584 -0.17023636 -0.22808233 -0.0060929083 0.039818417
0.27282876 0.23522364 0.026297292 -0.045587342 -0.13415182 -0.20683058 0.050720267 -0.051063832
0.020962942 0.03454529 0.010304926 0.049273476 0.25778168 0.5895667 0.031815697 -0.008652236
0.017919928 0.0700214 0.0014658581 -0.096898966 0.03555216 0.15993851 -0.018436588 -0.06911547
0.0051121623 0.030465188 0.023371553 0.019414559 -0.047478464 -0.5803176 0.031402968 -0.028151602
0.12982696 0.013706114 0.009246354 0.071674526 -0.18886048 -0.0850874 0.0207332 0.01805313
0.06995452 -0.015399556 0.011069122 -0.014404896 0.12933199 0.12803355 -0.008745955 -0.044506334
0.070054345 -0.049116675 0.012439673 -0.041193996 0.5419603 0.17938748 0.034646664 -0.0527459
0.26700675 0.40506712 -0.043199666 -0.13298337 0.18120128 -0.36076552 -0.046481647 -0.1463313
0.19303703 0.26895964 -0.03643348 -0.1845346 -0.00591316 -0.1413169 -0.03779305 -0.1802056
0.1748178 0.20519753 -0.1030793 -0.15143132 -0.0067184833 -0.1838047 -0.077366225 -0.16759345
-0.10661657 0.42181093 -0.02647752 0.15643245 -0.06941816 -0.16684495 0.009000838 0.107917175
-0.10881546 0.43562317 0.01736225 -0.038859576 0.010851934 -0.5461523 -0.034844432 -0.01255112
-0.05019522 0.43109596 0.02459678 -0.15744418 0.02086189 -0.72280586 -0.027166013 -0.14108625
0.121748954 0.25188294 -0.061700888 0.019439373 -0.067608245 -0.75076485 -0.08484481 0.028398454
0.11001662 0.26782182 -0.0775744 0.17146507 0.13764903 -0.45957872 -0.075432435 0.20437643
0.096422315 0.22052085 -0.0760075 0.09618029 0.2970813 0.057388246 -0.13654016 0.1549522
0.17685965 0.15250993 -0.0021959238 -0.09427701 -0.053499077 0.005255694 0.013607826 -0.1283961
0.11404481 0.18110557 0.05379245 -0.16468947 0.033636943 0.059893865 0.057488997 -0.18408214
0.17410243 0.030801527 0.05614943 -0.29659957 0.1604985 0.16074723 0.023866035 -0.35324478
0.1651906 0.07365887 -0.11851156 0.11982019 0.16641305 -0.5093776 -0.088545546 0.16049442
0.13455817 0.027087761 0.027968522 -0.02296189 0.20643497 -0.19826305 0.057966784 0.041385885
0.10485381 -0.012399104 0.022984222 -0.30138066 0.3119642 0.12165645 -0.03860793 -0.29134068
0.13903259 0.20908827 -0.086752474 0.14537707 -0.0057346127 -0.0022990732 -0.12511079 0.10079222
0.18677138 0.235572 -0.035169877 0.11986228 -0.04620704 -0.3172594 -0.053277478 0.1487577
0.11388586 0.29326475 -0.09881667 0.20014746 -0.060564473 -0.5929938 -0.13201891 0.121817864
-0.016198702 0.00463488 -0.02478726 -0.16442744 -0.013400047 -0.2614065 -0.017324662 -0.16622971
0.07659572 -0.05421845 -0.033349704 -0.005064597 0.15080953 -0.09807171 -0.06512924 -0.03992335
00000000: 506d 923d d9fb ec3e c199 40bc 80e4 2b3e
00000010: db75 90bd 1ade d83c 62dd e43c 90e5 533e
00000020: a76e 1f3d e29c 003f fe8b 443b e703 0d3e
00000030: 2864 16bd cc94 85be 0238 e43c 4c6d b03d
00000040: e8c3 cf3d be81 f13e 8260 8e3d 49a2 7b3b
00000050: 2eab b53d ed53 07bf 2667 cb3d 97b0 4abc
00000060: 1279 763e 2b31 013e 733f 9d3d 966a 6f3e
00000070: c3a1 10be 37f2 81be 1c61 903d ae6c 5b3e
00000080: 40ab 843e bd1b 7b3e 23c0 e8bc ef18 813d
00000090: 7152 2ebe 6a8e 69be 05a7 c7bb a318 233d
000000a0: 36b0 8b3e 77de 703e 6b6d d73c cbb9 3abd
000000b0: 185f 09be 65cb 53be 0ec0 4f3d 4f28 51bd
000000c0: 7aba ab3c 5d7f 0d3d fed5 283c fcd2 493d
000000d0: f6fb 833e d8ed 163f 2d51 023d 1cc2 0dbc
000000e0: d0cc 923c 6167 8f3d 0922 c03a f772 c6bd
000000f0: 249f 113d ecc6 233e 5408 97bc 698c 8dbd
00000100: ed83 a73b 2192 f93c b375 bf3c 480b 9f3c
00000110: c778 42bd b28f 14bf 66a0 003d 309e e6bc
00000120: 5cf1 043e 9c8f 603c 057e 173c 18ca 923d
00000130: a464 41be 4e42 aebd acd8 a93c 28e4 933c
00000140: 5144 8f3d 6b4e 7cbc 435b 353c 8302 6cbc
00000150: 9b6f 043e 3a1b 033e 324b 0fbc 464c 36bd
00000160: a778 8f3d 912e 49bd c5cf 4b3c 09bb 28bd
00000170: e9bd 0a3f 5ab1 373e a9e9 0d3d 160c 58bd
00000180: 1cb5 883e f564 cf3e 22f2 30bd cb2c 08be
00000190: d48c 393e 42b6 b8be 8a63 3ebd dfd7 15be
000001a0: 80ab 453e 14b5 893e 463b 15bd a3f6 3cbe
000001b0: 2ec3 c1bb 61b5 10be e3cc 1abd d187 38be
000001c0: 7003 333e 4d1f 523e 3d1b d3bd d010 1bbe
000001d0: b926 dcbb 4d37 3cbe 2f72 9ebd 9e9d 2bbe
000001e0: ca59 dabd 9af7 d73e 62e7 d8bc d42f 203e
000001f0: 1c2b 8ebd 67d9 2abe 4078 133c ae03 dd3d
00000200: a4da debd 000a df3e 473b 8e3c 382b 1fbd
00000210: 4fcc 313c a3d0 0bbf 09b9 0ebd 36a3 4dbc
00000220: 8199 4dbd 9cb8 dc3e 307f c93c 0c39 21be
00000230: 8ee6 aa3c ce09 39bf 428b debc ea78 10be
00000240: 8457 f93d cdf6 803e 12ba 7cbd 523f 9f3c
00000250: 3176 8abd 2032 40bf 1ec3 adbd e0a3 e83c
00000260: 6550 e13d f11f 893e 54df 9ebd 8a94 2f3e
00000270: def3 0c3e e74d ebbe 527c 9abd 0e48 513e
00000280: 1079 c53d 38d0 613e d2a9 9bbd 2cfa c43d
00000290: 0a1b 983e f00f 6b3d 2fd1 0bbe caab 1e3e
000002a0: b21a 353e 902b 1c3e 7de9 0fbb 4e14 c1bd
000002b0: d921 5bbd f537 ac3b 5cf3 5e3c 447a 03be
000002c0: 5390 e93d bd73 393e 7955 5c3d 5ba4 28be
000002d0: e4c6 093d 4553 753d 9579 6b3d 0780 3cbe
000002e0: e847 323e 7c53 fc3c f2fc 653d e6db 97be
000002f0: b859 243e ec9a 243e b482 c33c 80dc b4be
00000300: ba27 293e 76da 963d 30b6 f2bd 4a64 f53d
00000310: 2f68 2a3e 9266 02bf 5e57 b5bd a658 243e
00000320: 9ec9 093e 27e7 dd3c 3e1e e53c 931a bcbc
00000330: b063 533e 7805 4bbe 946e 6d3d 3f84 293d
00000340: 98bd d63d 9d25 4bbc 6849 bc3c 914e 9abe
00000350: c6b9 9f3e 0427 f93d 5923 1ebd 9b2a 95be
00000360: 8f5e 0e3e 3c1b 563e 48ab b1bd badd 143e
00000370: 6be9 bbbb 0cac 16bb 0b1d 00be 276c ce3d
00000380: ff40 3f3e c939 713e 4a0e 10bd 5b7a f53d
00000390: 9843 3dbd d36f a2be 7c39 5abd f053 183e
000003a0: fd3c e93d cc26 963e 6560 cabd 75f3 4c3e
000003b0: 7412 78bd 71ce 17bf f72f 07be a57b f93d
000003c0: 24b3 84bc 31e0 973b a70e cbbc ab5f 28be
000003d0: df8b 5bbc 13d7 85be 73ec 8dbc 1f38 2abe
000003e0: 38de 9c3d 2a14 5ebd b399 08bd ebf4 a5bb
000003f0: d06d 1a3e d2d9 c8bd 7b62 85bd ab86 23bd

fc1.bias f4 [512]
-0.061145782 -0.023813948 -0.04132494 -0.28098387 -0.24203567 0.07386381 -0.19320385 0.062360663
-0.116750434 -0.07052865 -0.19601119 0.12773174 -0.10419025 0.09096989 -0.11468473 0.019961882
-0.16703157 -0.19846852 -0.34950185 0.024105975 0.020801712 -0.2890866 0.0022786835 -0.10432211
0.1998132 -0.15533762 -0.051834535 -0.17526633 -0.20969109 -0.33192772 -0.29177603 0.08917984
0.028892774 0.09571553 0.013073444 -0.13365576 -0.28809708 -0.107984155 -0.2931663 -0.008069405
-0.018752167 -0.25636765 -0.16513732 -0.17584014 -0.33213145 -0.12433282 0.08702378 -0.15010305
0.03248192 -0.045391727 -0.2669115 -0.2040372 -0.20512418 -0.16754042 -0.18208724 -0.07923061
0.08390297 -0.1966821 0.10629347 -0.1193503 0.028057883 -0.121815085 -0.24370725 -0.12062506
0.15205526 -0.13243309 -0.18306728 -0.09933679 -0.31540936 0.07439824 0.12885384 -0.17178938
-0.1541001 0.0028642807 -0.061285764 0.06671557 -0.14154886 -0.16534452 -0.21424833 -0.2538994
-0.11701298 0.14287508 0.13577262 -0.23386529 0.06889875 -0.24155703 -0.26813614 -0.017766528
0.253299 0.27681592 -0.20964207 -0.047943212 0.14496629 -0.031775597 -0.069880486 -0.28239766
-0.08372327 -0.0379686 -0.042107668 -0.048896678 -0.19407985 -0.24827561 0.076234594 -0.1442343
0.03572218 -0.0407101 -0.120627545 -0.15986219 0.0022725053 -0.10023563 -0.41404867 -0.17379615
0.001073518 -0.13869368 -0.103066735 -0.11862366 -0.4196855 0.06241719 -0.4159607 -0.25869414
-0.3921609 -0.21405964 -0.32560644 -0.21476506 -0.31109548 -0.04481746 -0.24387914 -0.0065897615
-0.022229701 -0.017233701 -0.11647836 -0.12245884 -0.20306699 -0.3514262 -0.14583586 -0.038790673
0.017693102 -0.17575832 -0.10986258 -0.18525177 -0.15140529 -0.28683835 -0.27919975 -0.2538437
0.032244302 -0.14876318 -0.14229181 -0.02103881 -0.07098286 -0.101853736 -0.04686025 -0.16726702
-0.0014886379 -0.04105215 0.0839244 -0.19674137 -0.035341784 0.08713889 -0.10860256 -0.07916963
-0.16611803 0.03913174 -0.2610657 -0.18856439 -0.35496503 -0.13458595 -0.29321116 -0.04358941
-0.012944013 -0.23024276 0.07829706 -0.23968238 -0.06506017 -0.060339876 0.06033714 -0.004648999
0.14267121 -0.33215612 0.06318519 -0.053890113 -0.11562211 0.05351406 -0.14991128 -0.19808692
-0.3236843 -0.24588747 0.035603654 -0.042778157 -0.19192037 -0.12650745 -0.113634065 0.1755981
-0.08494591 -0.03922845 -0.13361946 0.08929615 -0.19221067 -0.44151214 -0.20621541 -0.2683535
0.061595265 0.054079693 -0.055412885 -0.29159164 0.085138336 0.024901455 0.09500806 -0.36180422
-0.14815222 0.06872981 -0.31203198 -0.24009557 0.011955874 0.1682169 -0.17662548 -0.021079957
-0.292481 -0.045114305 -0.30943266 -0.029074213 0.035537947 -0.1405133 -0.2981636 0.062861554
0.19132955 -0.18124674 -0.3459038 0.0016931405 -0.0016201796 -0.11643777 -0.23026696 0.006784172
-0.102606066 -0.38931048 -0.08713873 -0.17237578 -0.08368067 0.038299214 -0.078385055 0.028755384
-0.038654 -0.1462887 -0.119121715 -0.073659904 -0.25137416 -0.14185742 -0.061503094 -0.2641158
-0.18165448 0.0026500216 -0.3200719 -0.011085857 -0.1326968 -0.12054006 -0.02466593 -0.40739512
00000000: 0074 7abd 7815 c3bc 5744 29bd 1edd 8fbe
00000010: 33d8 77be e945 973d 3bd7 45be e56d 7f3d
00000020: da1a efbd 5371 90bd 28b7 48be 1ccc 023e
00000030: b361 d5bd 6c4e ba3d d4df eabd 1a87 a33c
00000040: 530a 2bbe 553b 4bbe e8f1 b2be e579 c53c
00000050: 5a68 aa3c 2903 94be f755 153b d5a6 d5bd
00000060: d59b 4c3e d310 1fbe 7350 54bd 0479 33be
00000070: 43b9 56be 6ef2 a9be ab63 95be eca3 b63d
00000080: 8ab0 ec3c 8106 c43d 0032 563c 0edd 08be
00000090: 7681 93be cc26 ddbd e519 96be 8a35 04bc
000000a0: 259e 99bc 9f42 83be c219 29be 700f 34be
000000b0: 220d aabe 35a2 febd 8639 b23d 9db4 19be
000000c0: c30b 053d adec 39bd a0a8 88be 21ef 50be
000000d0: 130c 52be b78f 2bbe 1475 3abe a843 a2bd
000000e0: 52d5 ab3d 0867 49be 64b0 d93d ee6d f4bd
000000f0: a5d9 e53c 307a f9bd 658e 79be 450a f7bd
00000100: 60b4 1b3e 8a9c 07be fd75 3bbe 1671 cbbd
00000110: 567d a1be 1b5e 983d 43f2 033e 8ee9 2fbe
00000120: 6bcc 1dbe a8b6 3b3b c806 7bbd 2ca2 883d
00000130: 2ff2 10be 1350 29be ea63 5bbe 1aff 81be
00000140: 80a4 efbd d84d 123e fa07 0b3e 627a 6fbe
00000150: ca1a 8d3d ba5a 77be 2449 89be 1c8b 91bc
00000160: 68b0 813e d1ba 8d3e 69ac 56be 1a60 44bd
00000170: 0b72 143e 2127 02bd 801d 8fbd 6d96 90be
00000180: 1b77 abbd f684 1bbd 1779 2cbd e247 48bd
00000190: debc 46be f63b 7ebe e220 9c3d 28b2 13be
000001a0: 6c51 123d a2bf 26bd 930b f7bd eab2 23be
000001b0: 50ee 143b 5748 cdbd 30fe d3be 9ef7 31be
000001c0: 49b5 8c3a b705 0ebe a714 d3bd f6f0 f2bd
000001d0: 05e1 d6be 2ba9 7f3d cdf8 d4be 8f73 84be
000001e0: 50c9 c8be 7332 5bbe e3b5 a6be 5feb 5bbe
000001f0: e847 9fbe 8392 37bd 74bb 79be edee d7bb
00000200: 101b b6bc b12d 8dbc 358c eebd b3cb fabd
00000210: cbf0 4fbe 23ee b3be ff55 15be f8e2 1ebd
00000220: 20f1 903c fdf9 33be a2ff e0bd a4b2 3dbe
00000230: fd09 1bbe 7adc 92be 45f3 8ebe cdf7 81be
00000240: 9a12 043d 6055 18be f2b4 11be 9559 acbc
00000250: 765f 91bd b198 d0bd 89f0 3fbd 0c48 2bbe
00000260: 661e c3ba 4d26 28bd 8ee0 ab3d 9276 49be
00000270: 8cc2 10bd e075 b23d 056b debd b023 a2bd
00000280: d81a 2abe 9a48 203d 67aa 85be 0617 41be
00000290: fabd b5be e6d0 09be c61f 96be cf8a 32bd
000002a0: 2013 54bc c2c4 6bbe 365a a03d 4c6f 75be
000002b0: 443e 85bd f226 77bd 1424 773d a156 98bb
000002c0: 6718 123e 5e10 aabe 3d67 813d e1bb 5cbd
000002d0: 49cb ecbd 8f31 5b3d 5882 19be 4cd7 4abe
000002e0: f3b9 a5be edc9 7bbe 23d5 113d 2638 2fbd
000002f0: c686 44be 2b8b 01be fab8 e8bd fdcf 333e
00000300: 1ff8 adbd 03ae 20bd 8ad3 08be e6e0 b63d
00000310: e0d2 44be e10d e2be 222a 53be a165 89be
00000320: 514b 7c3d ab82 5d3d 9ff8 62bd 804b 95be
00000330: 025d ae3d 23fe cb3c 9693 c23d 673e b9be
00000340: 37b5 17be 37c2 8c3d a8c2 9fbe 9ddb 75be
00000350: 92e2 433c 0d41 2c3e 4fdd 34be e0af acbc
00000360: 12c0 95be c7c9 38bd f56d 9ebe 0b2d eebc
00000370: 3d90 113d b8e2 0fbe e6a8 98be 8fbd 803d
00000380: e5eb 433e bf98 39be 4e1a b1be 5eec dd3a
00000390: 355c d4ba ed76 eebd 1acb 6bbe c24d de3b
000003a0: 2123 d2bd b453 c7be ca75 b2bd 4783 30be
000003b0: c560 abbd a3df 1c3d 5888 a0bd 6990 eb3c
000003c0: a853 1ebd b4cc 15be 16f6 f3bd 01db 96bd
000003d0: 1db4 80be 1243 11be abea 7bbd 303a 87be
000003e0: a203 3abe fcab 2d3b 77e0 a3be 74a1 35bc
000003f0: ace1 07be b5dd f6bd 3410 cabc 1896 d0be

fc2.weight f4 [400, 512]
-0.08833331 0.13368091 -0.33818415 -0.03157483 -0.14418976 -0.07041191 -0.02535742 -0.044764426
-0.08990825 -0.04410431 -0.16457883 0.1574627 -0.12798326 -0.066905856 -0.13271886 -0.16306442
-0.018888908 -0.040590636 0.094777785 -0.20609277 -0.37952277 0.055394717 -0.05058264 -0.092211746
-0.09124474 -0.064772226 0.12802868 -0.14887966 0.026131585 -0.09836519 0.043656655 -0.19560528
-0.09168762 -0.16841064 -0.048793327 -0.25944427 -0.17709242 -0.20288022 -0.003726626 -0.02806323
-0.14592795 -0.01289668 -0.11122359 0.10569517 -0.31761995 -0.07506304 -0.12122397 -0.040157598
0.1828552 -0.25722513 0.036182456 -0.104922235 0.2098232 -0.02879274 0.058856267 0.1406117
0.15178841 -0.06659412 -0.21183087 -0.026913488 0.17668745 -0.19828956 -0.21983396 -0.10775155
-0.22272982 -0.061848346 0.24606565 0.06941192 0.032312274 0.16474013 0.094539955 -0.2925188
0.080193974 0.04395923 -0.15090717 0.10537289 -0.34698254 0.26646212 -0.3102744 -0.15390192
-0.12833624 -0.24496523 0.13942155 -0.16246657 -0.062447354 0.12701061 0.17795588 -0.23824327
-0.117705435 -0.3132069 -0.047410026 -0.03478871 -0.17307134 0.0008718579 0.018933479 0.02287233
0.034749296 0.058421202 0.06938576 0.03021432 0.1425841 -0.19886534 0.119392686 -0.11534427
-0.28461754 0.06696847 -0.031884447 -0.6390016 -0.05349656 0.047750913 0.016530957 0.07749295
-0.07939895 -0.23225626 -0.3414055 -0.06527375 -0.1726722 0.027320247 0.039284185 0.07110586
-0.15414988 0.047783043 0.25040892 -0.079074845 -0.24576949 0.3874939 0.28367215 0.17480303
-0.15354128 0.077469796 0.18216209 -0.05464703 0.24593124 -0.10001264 0.105699874 -0.15436871
-0.24438527 0.20437363 0.056186404 -0.2445071 -0.27515954 -0.041286383 0.13376923 0.00956229
-0.19249174 -0.04078682 0.11653032 -0.19925226 0.012499257 0.019847874 -0.0017401915 -0.18916349
-0.18200661 0.1440202 -0.12826559 -0.06087313 0.1112857 0.10192573 0.031097246 0.000900446
-0.18425654 -0.1346078 -0.20404609 0.1005543 0.037220813 0.018002192 -0.11271741 -0.1289858
0.23889256 -0.08972255 -0.019995185 0.19451475 0.009196077 0.16790344 -0.6201396 -0.03900358
-0.22260873 0.15401465 -0.17983544 0.011731899 0.007946242 -0.26386163 -0.026186718 0.10325919
0.031538393 -0.15303144 0.06014526 -0.041596886 -0.17261358 0.09840617 0.07103237 -0.4955426
-0.11244734 0.31282774 -0.11542984 -0.03885798 -0.11977501 -0.018453468 -0.36804134 0.18488663
-0.37644568 0.004528153 -0.03385903 0.043487363 0.14046617 0.13895093 -0.049951706 -0.15997729
-0.15509677 -0.065064736 -0.2600574 0.031978462 -0.081991725 -0.37655494 -0.24643685 -0.2108281
-0.12775744 0.028468166 -0.06531091 -0.43693143 -0.008989871 0.04938827 -0.07314921 0.05338302
-0.2690047 0.021875544 -0.03773163 -0.006832988 -0.15023363 0.20840798 -0.14410046 -0.027128208
0.11601134 0.043014713 -0.0458979 0.16270275 -0.09610695 -0.026641715 -0.026702411 -0.16880618
-0.06049168 -0.23672147 -0.25317672 -0.20008074 -0.14013506 -0.2343935 -0.38590938 0.1452392
-0.008877029 -0.010140041 0.011666999 0.0439134 -0.24504514 -0.27635303 -0.16989629 0.11948566
00000000: 18e8 b4bd a6e3 083e 7926 adbe 9c54 01bd
00000010: 7ba6 13be 1f34 90bd 5dba cfbc e75a 37bd
00000020: d121 b8bd b9a6 34bd 5a87 28be e73d 213e
00000030: 0b0e 03be f005 89bd 74e7 07be 5cfa 26be
00000040: e9bc 9abc 5e42 26bd db1a c23d fc09 53be
00000050: cf50 c2be 92e5 623d be2f 4fbd 83d9 bcbd
00000060: 86de babd 4da7 84bd f319 033e e973 18be
00000070: e811 d63c b073 c9bd 52d1 323d c04c 48be
00000080: b8c6 bbbd d773 2cbe 83db 47bd e1d5 84be
00000090: b757 35be d5bf 4fbe 693a 74bb dce4 e5bc
000000a0: 236e 15be 994c 53bc 32c9 e3bd b676 d83d
000000b0: 159f a2be a7ba 99bd 4644 f8bd 4b7c 24bd
000000c0: 653e 3b3e 03b3 83be 0e34 143d 78e1 d6bd
000000d0: e5db 563e c1de ebbc 4513 713d 83fc 0f3e
000000e0: 6c6e 1b3e 7f62 88bd 31ea 58be ad79 dcbc
000000f0: 8eed 343e 6b0c 4bbe 271c 61be d8ac dcbd
00000100: 4913 64be b154 7dbd a2f8 7b3e d627 8e3d
00000110: e059 043d a3b1 283e 2a9e c13d 06c5 95be
00000120: bd3c a43d 980e 343d 6987 1abe becd d73d
00000130: b2a7 b1be b96d 883e 49dc 9ebe 7798 1dbe
00000140: 936a 03be 2ad8 7abe 86c4 0e3e a35d 26be
00000150: ccc8 7fbd 120f 023e 113a 363e 0bf6 73be
00000160: 8c0f f1bd a85c a0be 0431 42bd 9b7e 0ebd
00000170: 9d39 31be 658d 643a 621a 9b3c c15e bb3c
00000180: 4755 0e3d 124b 6f3d 1f1a 8e3d 0684 f73c
00000190: 9101 123e 5ba3 4bbe 2784 f43d 9e39 ecbd
000001a0: 64b9 91be c426 893d 4499 02bd 9c95 23bf
000001b0: 351f 5bbd 7696 433d ee6b 873c a0b4 9e3d
000001c0: eb9b a2bd 96d4 6dbe b4cc aebe 3eae 85bd
000001d0: fbd0 30be b6ce df3c 74e8 203d f39f 913d
000001e0: 77d9 1dbe 27b8 433d 9935 803e fef1 a1bd
000001f0: ffaa 7bbe 9a65 c63e 7a3d 913e 91ff 323e
00000200: ed39 1dbe 7ca8 9e3d b388 3a3e 90d5 5fbd
00000210: 66d5 7b3e 6dd3 ccbd 2d79 d83d d512 1ebe
00000220: 2240 7abe 5247 513e b723 663d 1260 7abe
00000230: b6e1 8cbe e91b 29bd cdfa 083e 27ab 1c3c
00000240: 8e1c 45be 1510 27bd 73a7 ee3d c908 4cbe
00000250: afc9 4c3c 0298 a23c 2317 e4ba 13b4 41be
00000260: f15f 3abe 087a 133e 0e58 03be 1a56 79bd
00000270: c2e9 e33d 70be d03d a7bf fe3c e80b 6c3a
00000280: bfad 3cbe a1d6 09be 75f1 50be 6aef cd3d
00000290: da74 183d 5579 933c 63d8 e6bd db14 04be
000002a0: 40a0 743e 75c0 b7bd f1cc a3bc e02e 473e
000002b0: 24ab 163c e1ee 2b3e 78c1 1ebf 38c2 1fbd
000002c0: 8bf3 63be 04b6 1d3e c826 38be 2737 403c
000002d0: f430 023c df18 87be 8785 d6bc 8e79 d33d
000002e0: 672e 013d 46b4 1cbe e05a 763d 7f61 2abd
000002f0: 9dc1 30be 2d89 c93d 6b79 913d c2b7 fdbe
00000300: ca4a e6bd f52a a03e 7b66 ecbd 8c29 1fbd
00000310: 9a4c f5bd ba2b 97bc ea6f bcbe ec52 3d3e
00000320: 7dbd c0be e760 943b c4af 0abd ce1f 323d
00000330: 5dd6 0f3e 2749 0e3e 299a 4cbd 16d1 23be
00000340: b0d1 1ebe a940 85bd 3e26 85be d9fb 023d
00000350: 47eb a7bd cfcb c0be f159 7cbe 52e3 57be
00000360: d9d2 02be 1236 e93c bac1 85bd 7ab5 dfbe
00000370: 404a 13bc 5b4b 4a3d 41cf 95bd 27a8 5a3d
00000380: fcba 89be 5734 b33c 7b8c 1abd 42e7 dfbb
00000390: d8d6 19be e768 553e 128f 13be fa3b debc
000003a0: 5a97 ed3d 3230 303d 70ff 3bbd 8d9b 263e
000003b0: b8d3 c4bd ba3f dabc 04bf dabc 87db 2cbe
000003c0: 20c6 77bd 1d67 72be 61a0 81be f7e1 4cbe
000003d0: 917f 0fbe da04 70be ea95 c5be 96b9 143e
000003e0: f570 11bc 6a22 26bc f126 3f3c 8ade 333d
000003f0: 1ded 7abe 257e 8dbe 4bf9 2dbe e6b4 f43d

fc2.bias f4 [400]
0.099107556 0.002478516 -0.05267913 -0.1852618 -0.019085655 -0.11332526 -0.036259305 -0.18369831
-0.03307528 -0.069507666 -0.13860057 -0.051713884 -0.119890064 -0.032612644 0.034115147 -0.037003502
-0.027851855 -0.08096104 0.012053183 -0.06896253 -0.019331863 -0.051986743 -0.23519824 -0.086519875
-0.023525065 -0.18282068 -0.05273971 0.1476556 -0.29059005 -0.042355686 -0.14030868 -0.1163066
-0.25733748 -0.24018468 -0.038308583 -0.15440182 -0.058181215 -0.022302663 -0.0934401 -0.15364556
-0.11438991 -0.028848896 -0.002835317 0.029431274 -0.20731014 -0.17349881 -0.14911883 -0.13270739
-0.066008545 -0.34402415 -0.06360562 -0.2576127 -0.0777172 -0.043288063 0.011273897 -0.013626555
-0.031415097 -0.21929647 -0.14118053 -0.010123656 -0.13941833 -0.15156585 0.03672564 0.0015911584
-0.2937597 -0.08884165 -0.010257462 -0.0003781253 -0.13528685 -0.22877057 0.007120706 -0.15370123
-0.07635539 -0.101691335 -0.104111165 -0.2481889 -0.09780234 -0.09092853 -0.03250754 -0.07699029
-0.15035799 -0.10394575 -0.18559471 -0.01598689 0.036779847 -0.039758004 -0.07607629 -0.10953914
-0.10704955 -0.09878824 -0.3013594 -0.04739654 -0.110350974 -0.06926996 -0.08589749 0.006608746
-0.24541888 -0.031902242 -0.042602215 -0.04079382 -0.16735427 0.0043975883 0.0010110365 -0.11201597
-0.19255118 -0.20600963 -0.041728895 -0.12793317 0.00091013726 -0.16182458 -0.049301073 -0.050754342
-0.0953916 -0.0324999 -0.1601552 -0.13122797 -0.017766844 -0.016186127 -0.08004097 -0.06205534
-0.06257488 -0.008359669 -0.034242272 -0.024786295 -0.028493803 0.11551983 -0.01986968 -0.18225639
1.7135653e-05 -0.0509785 0.000625448 -0.115680225 0.11892777 -0.10503834 -0.25917035 -0.13308863
-0.028517485 -0.03069659 -0.050521407 -0.029513469 -0.18394239 -0.1606246 -0.16044909 -0.039828856
-0.031337943 -0.014925024 0.093310386 -0.017181756 -0.17901395 -0.04947231 -0.1512681 -0.06302078
-0.10333602 -0.046505887 0.007377833 -0.06856521 -0.04376942 -0.063381106 0.021991745 -0.008298282
0.045091126 -0.052420426 0.046809256 -0.248171 -0.1402668 -0.05419706 -0.19299038 -0.09767249
-0.07616733 -0.083277866 -0.22762759 -0.03745183 -0.13274562 -0.021992145 -0.07163439 -0.1661551
-0.04416447 -0.023871431 -0.055596054 -0.17125368 -0.040816367 0.009760565 -0.05989051 -0.061256178
-0.045249436 -0.06480002 0.012277399 -0.036849353 -0.027931053 -0.032893904 -0.014887819 -0.04410471
-0.027590113 -0.11845555 -0.4076505 -0.050874583 -0.06974465 -0.061927576 0.011037302 -0.126281
-0.059586596 -0.20678253 0.0718604 -0.07473335 -0.22760968 0.07746725 -0.21175231 0.060357213
0.055169616 -0.02244131 -0.117005534 -0.061693918 -0.17519271 -0.127297 0.0306351 -0.04560269
-0.05149669 -0.0785062 -0.089065604 -0.05219497 -0.048494812 -0.19806485 -0.050394215 -0.04822835
-0.06870303 -0.034516964 -0.17992853 -0.095117725 -0.03949267 0.016796043 -0.067165695 -0.11099667
-0.0018917546 -0.15433924 -0.0014715057 -0.14750768 -0.030200532 -0.028491924 -0.06283959 0.003741921
-0.24417223 -0.07531391 -0.061851945 -0.025160776 -0.10931402 -0.015423261 -0.1712384 -0.040820006
-0.10862525 -0.2401173 0.11395278 0.02653778 -0.22766547 -0.17068641 0.0017407967 0.032360703
00000000: e7f8 ca3d 996e 223b 12c6 57bd 45b5 3dbe
00000010: 8559 9cbc 1317 e8bd a384 14bd 691b 3cbe
00000020: f279 07bd 095a 8ebd 4fed 0dbe f0d1 53bd
00000030: ec88 f5bd d694 05bd 53bc 0b3d fc90 17bd
00000040: 9329 e4bc e7ce a5bd b77a 453c 3a3c 8dbd
00000050: db5d 9ebc 0df0 54bd cfd7 70be 5531 b1bd
00000060: a3b7 c0bc 5835 3bbe 9805 58bd 0833 173e
00000070: 38c8 94be 287d 2dbd 14ad 0fbe 2832 eebd
00000080: bdc1 83be f9f2 75be 76e9 1cbd 831b 1ebe
00000090: 6d4f 6ebd 13b4 b6bc 865d bfbd 4355 1dbe
000000a0: 4245 eabd 8554 ecbc bad0 39bb db19 f13c
000000b0: 1c49 54be aca9 31be 9bb2 18be 72e4 07be
000000c0: 7d2f 87bd ef23 b0be aa43 82bd d0e5 83be
000000d0: 322a 9fbd d34e 31bd 27b6 383c ea41 5fbc
000000e0: 1ead 00bd 418f 60be a191 10be b1dd 25bc
000000f0: aec3 0ebe 1434 1bbe a06d 163d 6b8e d03a
00000100: ac67 96be 9cf2 b5bd ea0e 28bc 1e3f c6b9
00000110: a388 0abe d542 6abe d054 e93b db63 1dbe
00000120: 3760 9cbd 8c43 d0bd 3c38 d5bd 3b25 7ebe
00000130: 984c c8bd bd38 babd a026 05bd 16ad 9dbd
00000140: 72f7 19be 82e1 d4bd 8a0c 3ebe f0f6 82bc
00000150: 77a6 163d 4ad9 22bd e3cd 9bbd 0e56 e0bd
00000160: cb3c dbbd 7d51 cabd c74b 9abe e022 42bd
00000170: b1ff e1bd 69dd 8dbd 06eb afbd 2e8e d83b
00000180: 164f 7bbe edab 02bd a97f 2ebd 6c17 27bd
00000190: eb5e 2bbe a519 903b c184 843a a168 e5bd
000001a0: 232c 45be 30f4 52be ebeb 2abd ea00 03be
000001b0: 4796 6e3a 58b5 25be ecef 49bd c9e3 4fbd
000001c0: ac5c c3bd 9d1e 05bd baff 23be a060 06be
000001d0: c68b 91bc c598 84bc 85ec a3bd bd2d 7ebd
000001e0: 4227 80bd fef6 08bc a041 0cbd a10c cbbc
000001f0: d66b e9bc a995 ec3d bdc5 a2bc 6ba1 3abe
00000200: 89be 8f37 d5ce 50bd 1bf5 233a c1e9 ecbd
00000210: 6790 f33d 571e d7bd fab1 84be 6348 08be
00000220: 809d e9bc 6a77 fbbc 89ef 4ebd 3bc6 f1bc
00000230: 655b 3cbe c67a 24be c44c 24be 9523 23bd
00000240: 375c 00bd 1688 74bc 8419 bf3d c1c0 8cbc
00000250: 6f4f 37be 7aa3 4abd 06e6 1abe 0a11 81bd
00000260: d6a1 d3bd f57c 3ebd c0c1 f13b eb6b 8cbd
00000270: 9047 33bd f4cd 81bd 0828 b43c 84f5 07bc
00000280: 79b1 383d cdb6 56bd 10bb 3f3d 8a20 7ebe
00000290: 1aa2 0fbe bdfd 5dbd 459f 45be 8408 c8bd
000002a0: 9efd 9bbd 968d aabd 3517 69be 1767 19bd
000002b0: 78ee 07be df28 b4bc 0db5 92bd 9024 2abe
000002c0: cee5 34bd 058e c3bc b0b8 63bd 205d 2fbe
000002d0: 102f 27bd c7ea 1f3c c04f 75bd c2e7 7abd
000002e0: 7957 39bd dfb5 84bd 2527 493c 59ef 16bd
000002f0: aacf e4bc c2bb 06bd 0aec 73bc 24a7 34bd
00000300: a904 e2bc d398 f2bd 91b7 d0be de61 50bd
00000310: 48d6 8ebd c5a7 7dbd cdd5 343c ce4f 01be
00000320: 1311 74bd cdbe 53be 8c2b 933d cc0d 99bd
00000330: 8312 69be 26a7 9e3d 99d5 58be 2039 773d
00000340: 89f9 613d d7d6 b7bc 99a0 efbd c3b2 7cbd
00000350: b865 33be 255a 02be 76f6 fa3c e3c9 3abd
00000360: 31ee 52bd dcc7 a0bd 0768 b6bd 65ca 55bd
00000370: 7fa2 46bd 83d1 4abe 2a6a 4ebd 178b 45bd
00000380: 2db4 8cbd a961 0dbd 2f3f 38be 15cd c2bd
00000390: 11c3 21bd db97 893c 2b8e 89bd 3952 e3bd
000003a0: c0f4 f7ba 1b0b 1ebe 8adf c0ba 410c 17be
000003b0: 1b67 f7bc e567 e9bc 0bb2 80bd 043b 753b
000003c0: 4908 7abe 2e3e 9abd 7758 7dbd f91d cebc
000003d0: 07e0 dfbd d8b1 7cbc 1e59 2fbe e132 27bd
000003e0: ea76 debd 4fe1 75be 1360 e93d c265 d93c
000003f0: 2321 69be 6bc8 2ebe 722b e43a a88c 043d

fc3.weight f4 [2, 400]
-0.029005352 0.013917972 -0.014590539 -0.2005799 -0.19378059 0.7072473 -0.40164468 -0.4344793
0.0052115796 -0.013903516 0.03167562 0.039462164 0.05063495 0.0068780286 0.011474322 -0.07802975
0.004477752 0.023719607 -0.023229366 0.32951745 0.018740388 -0.19316888 0.15822183 -0.0031494806
0.00837361 -0.3044322 0.015552185 0.111783594 0.2854142 -0.46221116 0.12795663 -0.1839726
0.46501243 -0.52231884 -1.4291856 -0.30353954 0.0042266496 -0.00768723 0.2795291 0.018562447
-0.07868524 -0.010015866 0.0027497278 -0.17479043 0.09865653 -1.2062714 -0.45152798 0.12532726
0.0038979824 -0.00963073 0.011113622 0.041063923 -0.09800259 0.01712888 -0.4226409 0.015746133
-0.16528043 0.44176942 -0.15103914 -0.0018355693 -0.0032887817 0.16941534 -0.004845144 0.006701721
-0.28620976 -0.00063774956 0.0027965312 0.10343415 0.031010037 0.13948646 -0.0019676983 0.21838047
0.005633069 0.0225456 -0.011573774 -0.030191286 -0.043412242 0.05331204 0.008951406 0.0070381016
0.32879457 -0.24045084 -0.11038909 0.014146532 0.026474087 -0.023219744 0.026019638 -0.06641691
-0.22996175 -0.06521864 -0.057974506 1.1720884 -0.0030680366 -0.006228468 0.051707014 0.0022864696
-0.008574069 0.013714701 0.61871713 -0.010718603 0.066133395 0.001075205 -0.5155969 -0.19626565
-0.014338729 0.21002237 0.00090277544 -0.4995932 0.3698896 0.057542473 -0.0065583596 0.0046588955
0.10445846 -0.0050291927 0.27652803 0.057684068 0.0007618462 -0.0017865399 0.010196594 0.0025007343
-0.0033168045 3.524297e-05 0.005651648 0.007857312 -0.013366162 -0.13943681 -0.004147865 -0.026155232
0.017899245 -0.099764645 0.00022839264 0.10762718 -0.13116175 0.00053787674 -0.37360558 -0.43287143
0.0038550762 0.026010402 0.0019249163 0.011747153 -0.012642768 0.02369432 -0.13484079 0.19441181
-0.091289066 -0.015140414 0.099442616 0.010336837 0.090256296 0.006009134 -0.30298278 0.33710128
-0.20871343 0.009806086 0.017497402 0.005912064 -0.078915276 0.15827061 -0.10858014 -0.011991042
-0.3232323 0.00074794184 0.7042523 -0.05333511 -0.012845411 -0.12241138 0.08253555 0.21648332
0.14636853 0.026208946 0.026983332 -0.018036019 -0.40166196 0.02655252 -0.6420031 -1.0388258
-0.24024689 0.08428084 0.03495887 0.4681702 0.01044954 0.013837381 0.01578061 0.16204476
0.0012575423 -0.15181734 -0.13113305 -0.9120183 -0.31076327 0.0036798131 0.01159762 -0.01243325
0.0045941113 0.07804283 -0.061697274 0.012963075 0.0072080255 0.16950122 -0.014268884 -0.031736244
0.3265125 0.12363952 -0.108531535 -0.02339345 -0.114182636 -0.62358385 0.12867725 -0.20913038
-0.084776714 0.00084511144 -0.14563379 0.13559775 -0.3586572 -0.63682574 0.41857514 0.0016322276
0.073631555 -0.24892813 -0.019282468 0.008211156 0.0033603746 -0.25516185 0.0037070068 0.2804848
0.012812061 -0.0061378772 -0.69346297 -0.32120234 -0.019690655 -0.0006887524 0.0033716757 -0.14061864
-0.024387859 0.091169424 0.001901245 0.06823856 0.01023788 0.075805955 0.053704716 0.003972493
0.4573527 -0.0892979 0.006270744 0.048543043 0.43231255 -0.003756682 0.04700333 0.0011551385
0.24585548 0.074782215 0.014440766 -0.04739092 0.07078434 -0.18523176 0.006653063 0.020753074
00000000: a29c edbc 3508 643c 280d 6fbc d164 4dbe
00000010: 6b6e 46be 290e 353f 5fa4 cdbe 1274 debe
00000020: e6c5 aa3b 93cb 63bc 4bbe 013d 14a3 213d
00000030: 9866 4f3d 1661 e13b cbfe 3b3c 10ce 9fbd
00000040: 1bba 923b 9f4f c23c 834b bebc 83b6 a83e
00000050: 7185 993c 10ce 45be e704 223e 8467 4ebb
00000060: 7731 093c 8ade 9bbe 97ce 7e3c ccee e43d
00000070: cf21 923e f1a6 ecbe 1007 033e 5063 3cbe
00000080: 1c16 ee3e b0b6 05bf 8eef b6bf 8969 9bbe
00000090: b57f 8a3b 29e5 fbbb 701e 8f3e 4610 983c
000000a0: ba25 a1bd 9619 24bc c734 343b 43fc 32be
000000b0: 6f0c ca3d 1a67 9abf ad2e e7be ca55 003e
000000c0: 4b75 7f3b 36ca 1dbc e915 363c a532 283d
000000d0: 95b5 c8bd dd51 8c3c 6364 d8be 09fe 803c
000000e0: 463f 29be 9a2f e23e 01aa 1abe 7c97 f0ba
000000f0: 9a88 57bb 377b 2d3e 04c4 9ebb 1c9a db3b
00000100: 168a 92be a62e 27ba 0246 373b 49d5 d33d
00000110: c308 fe3c 8ad5 0e3e 80f4 00bb 219f 5f3e
00000120: 9c95 b83b 8db1 b83c ed9f 3dbc b753 f7bc
00000130: 09d1 31bd ba5d 5a3d eba8 123c e09f e63b
00000140: c357 a83e bf38 76be ad13 e2bd dbc6 673c
00000150: 2fe0 d83c 5537 bebc 2327 d53c 9705 88bd
00000160: 187b 6bbe 5a91 85bd ad76 6dbd fe06 963f
00000170: 1d11 49bb 2d18 ccbb bcca 533d 98d8 153b
00000180: 407a 0cbc a0b3 603c 3f64 1e3f 149d 2fbc
00000190: f270 873d e5ed 8c3a 29fe 03bf ddf9 48be
000001a0: fdec 6abc 1b10 573e 3ca8 6c3a aeca ffbe
000001b0: 2b62 bd3e a8b1 6b3d 82e7 d6bb a6a9 983b
000001c0: 51ee d53d edcb a4bb 1595 8d3e 2146 6c3d
000001d0: a2b6 473a 552a eaba 9d0f 273c 5ce3 233b
000001e0: bf5e 59bb dad1 1338 7631 b93b f5bb 003c
000001f0: bffd 5abc 86c8 0ebe d0ea 87bb 7f43 d6bc
00000200: 70a1 923c 6851 ccbd af7c 6f39 a46b dc3d
00000210: 444f 06be 4c00 0d3a 3b49 bfbe 53a1 ddbe
00000220: 72a5 7c3b c413 d53c 794d fc3a 2177 403c
00000230: 9d23 4fbc 971a c23c b413 0abe e413 473e
00000240: c3f5 babd 800f 78bc 92a8 cb3d d65b 293c
00000250: 4bd8 b83d 45e8 c43b 8f20 9bbe 8a98 ac3e
00000260: f9b8 55be b5a9 203c b656 8f3c fdb9 c13b
00000270: 559e a1bd b111 223e 445f debd 1376 44bc
00000280: b47e a5be 8711 443a e149 343f eb75 5abd
00000290: 8f75 52bc d1b2 fabd 6608 a93d cead 5d3e
000002a0: a2e1 153e 25b4 d63c 260c dd3c 46c0 93bc
000002b0: a3a6 cdbe ac84 d93c 515a 24bf 3ef8 84bf
000002c0: 4803 76be 6f9b ac3d 0831 0f3d 01b4 ef3e
000002d0: 8c34 2b3c 2fb6 623c 5646 813c 10ef 253e
000002e0: 1ed4 a43a 0176 1bbe be47 06be 087a 69bf
000002f0: 5d1c 9fbe 0529 713b f203 3e3c d5b4 4bbc
00000300: 338a 963b ebd4 9f3d 48b6 7cbd 1463 543c
00000310: 4d31 ec3b ba91 2d3e 0ac8 69bc ddfd 01bd
00000320: a52c a73e b736 fd3d c845 debd 9fa3 bfbc
00000330: 96d8 e9bd 31a3 1fbf f8c3 033e 4626 56be
00000340: 6a9f adbd 788a 5d3a 0621 15be 23da 0a3e
00000350: eba1 b7be 0307 23bf 7b4f d63e 78f0 d53a
00000360: 24cc 963d 04e7 7ebe 44f6 9dbc 1688 063c
00000370: bb39 5c3b 93a4 82be 41f1 723b b49b 8f3e
00000380: aee9 513c 3f20 c9bb ca86 31bf a274 a4be
00000390: 4c4e a1bc 648d 34ba 55f7 5c3b 55fe 0fbe
000003a0: 0cc9 c7bc 09b7 ba3d 3233 f93a a8c0 8b3d
000003b0: c8bc 273c 2740 9b3d 7af9 5b3d b02b 823b
000003c0: 222a ea3e d1e1 b6bd d07a cd3b 12d5 463d
000003d0: 1258 dd3e aa32 76bb 9086 403d 0468 973a
000003e0: 8ac1 7b3e 6b27 993d f698 6c3c fb1c 42bd
000003f0: 61f7 903d 65ad 3dbe f001 da3b 5a02 aa3c

fc3.bias f4 [2]
-0.105332136 -0.16891056
00000000: 60b8 d7bd e4f6 2cbe
