MADDPG/critic_checkpoint.pth (torch_old, 877744 bytes, 5 tensors)

fcs1.weight f4 [512, 24]
000000 c9 6d 8e 3d 8c c8 b8 3d fc 0e c8 bc 46 9c c8 3c
       0.069545336 0.09022626 -0.024421208 0.02448858
000010 b1 2c 0c be a8 82 45 bf 8f 84 3a 3d a6 42 04 3d
       -0.13688923 -0.7715249 0.045536574 0.032290123
000020 15 9a 3c bd 28 10 a9 3c 8a 96 45 3c 42 11 27 bd
       -0.04604538 0.020637587 0.012059817 -0.040787943
000030 c8 80 37 bd 43 70 32 be 87 c1 1e 3d 4d f0 e3 bd
       -0.04480055 -0.17425637 0.03875878 -0.11129818
000040 85 8e b2 bc b2 d3 85 bc 84 26 22 3d e2 01 e6 3c
       -0.021796474 -0.016336296 0.039587513 0.02807707
000050 0c 40 2d 3e 8e f8 4a 3f 88 28 8f 3c 37 9b 2b 3c
       0.16918963 0.79285514 0.017475381 0.010474018
000060 62 f8 ad 3e 35 9f 58 3d f5 be 3a 3c 52 f8 7b 3d
       0.33978564 0.052886207 0.011398067 0.061516114
000070 66 f3 d2 3c 9d f9 f5 bd 1d f9 85 3c a8 03 9e 3d
       0.025750827 -0.120105006 0.016354138 0.07715541
000080 95 66 8d 3e 29 9e 37 3b e1 d8 1b 3d f1 a3 77 bd
       0.27617326 0.0028017855 0.03804863 -0.06045908
000090 10 99 b0 bc bb 64 73 bd 4d 1b a6 bb 5c 81 b8 bd
       -0.02155736 -0.059422236 -0.0050691725 -0.09009048
0000a0 8f 75 a7 3e 4c 58 37 3c 2e e3 7e 3d 0a 78 87 3e
       0.32706878 0.011190485 0.062228374 0.2645877
0000b0 b5 64 0e 3e f1 04 00 3e 46 94 a6 3d a6 f0 8a 3e
       0.13905604 0.12501885 0.0813375 0.27136725
0000c0 b4 a5 3f 3d fc c2 c7 3d b6 b4 3b 3c 32 88 2a bd
       0.046788886 0.09753987 0.011456659 -0.041633792
0000d0 86 06 22 3e 0d 25 11 3e 46 93 6d 3d 50 c5 26 bc
       0.15822801 0.1417429 0.05800178 -0.010178879
0000e0 0a 84 12 3d d2 48 cf 3d 29 b3 db 3c 66 66 dd bc
       0.035770454 0.10121311 0.026818829 -0.027026366
0000f0 dd 3f 40 3e 82 8a 27 be 8f 99 bf 3b de a1 7f bc
       0.18774362 -0.1636143 0.005847163 -0.015602557
000100 a0 25 59 3d 64 1f 10 3e 61 ff f7 3b 01 ac 63 3d
       0.053014398 0.14074475 0.0075682853 0.055583958
000110 69 25 9b bd 9f 1a 93 3b 4e 7a 69 bc 48 f7 74 3d
       -0.07575495 0.0044892575 -0.014250351 0.05980614
000120 87 b9 88 3d 2e 9a e1 3e c2 b9 09 3b 37 ec 96 3d
       0.066760115 0.44062942 0.0021015261 0.07369273
000130 1f cd 16 be a9 b6 cf bd 83 f1 bf bc a5 7f 53 3d
       -0.14726685 -0.101422615 -0.023430591 0.051635403
000140 a8 3b 9c 3d 14 7b f1 3e 80 4c 2d bc 81 5e fe 3d
       0.07628566 0.47164214 -0.010577321 0.12420369
000150 8a 67 80 bd 61 76 3b be 71 fc 41 bd e6 ef c7 3d
       -0.062697485 -0.18306877 -0.047359888 0.09762554
000160 43 64 8d 3d b7 d0 e5 3e da e3 06 bd 65 16 1e bd
       0.06903889 0.448858 -0.03293214 -0.038595576
000170 54 36 e6 bd 69 67 fe be ed 67 b0 bd 7d 3e 54 bd
       -0.11240831 -0.4968827 -0.08613572 -0.051817406
000180 b4 ce b0 3d 4f 27 3a 3d f3 d1 b3 3c 9c d1 f1 3c
       0.086331755 0.045447644 0.021950698 0.029518895
000190 3e 92 9e be d4 3e 93 be 09 59 42 bd 0a 71 d4 bb
       -0.3097095 -0.28758872 -0.04744819 -0.006483202
0001a0 a8 ad f2 3d f4 d3 9d 3d ba 51 fa 3b 68 36 c4 3d
       0.118495286 0.077064425 0.007639137 0.0958069
0001b0 98 7d 18 be fc 9c 32 3d a8 6d b0 bc 0a f3 c5 3d
       -0.1489166 0.043606743 -0.021536663 0.09665497
0001c0 ed 71 8f 3d c4 57 16 bc 42 b9 fd bb 34 bb c2 bd
       0.070041515 -0.009176198 -0.0077430317 -0.095083624
0001d0 02 3c bb 3d bc 3f c2 3e 8f 74 ae bb eb a4 88 bd
       0.09142305 0.3793925 -0.0053239535 -0.066720806
0001e0 0d 34 a1 3e cc 2b 04 3f 36 cd 14 bd 3d af 98 bd
       0.31485024 0.5162933 -0.036328517 -0.07455299
0001f0 60 06 c6 bc 1a a3 d5 bd 9d 63 c8 3c aa 52 88 bd
       -0.024172962 -0.104315 0.024461562 -0.06656392
000200 eb 89 2b 3e a3 49 30 3e e1 07 c6 bb 5c 43 43 be
       0.1675183 0.1721559 -0.0060434197 -0.19068664
000210 1b 9b db 3c f7 84 21 3e 0c 94 0c 3b e6 12 2d be
       0.026807358 0.15773378 0.0021450548 -0.1690174
000220 e8 f0 50 3d 48 8c 49 3d da 6f 2e bd 92 9d bd bd
       0.051010996 0.04920605 -0.04258714 -0.0925857
000230 c2 b3 6a 3c 05 ce bc 3e c8 f3 21 bd e6 dd 84 bd
       0.014325084 0.3687593 -0.03953913 -0.06487636
000240 61 44 a5 3c da ad 6c bc 0b 9d 99 bc 93 50 3c bc
       0.020174207 -0.014445746 -0.018751642 -0.01149382
000250 97 0b a0 be f2 c7 55 3d f3 56 b0 3c 9b 5f f2 3c
       -0.31258842 0.052192636 0.021525836 0.029586604
000260 7f ee 68 3d 64 47 a2 3b 20 b7 9b bc 39 a5 05 3d
       0.056868073 0.004952358 -0.01900822 0.03262827
000270 bc 77 8a bd e5 7d 47 3d 1d 6d 56 3c 19 78 06 bd
       -0.06761119 0.048704047 0.013087538 -0.032829378
000280 06 dd 0c bc c3 e9 87 bd 89 f8 98 ba e2 2c aa 3b
       -0.008597618 -0.066363834 -0.0011670749 0.0051933387
000290 5c 6b f8 3e aa c9 2e 3d 74 6e 98 3b c0 dd b8 bb
       0.4851941 0.04267279 0.004651839 -0.005641669
0002a0 03 15 a7 3e a1 02 07 be b2 f9 ce bd ac 11 73 3e
       0.32633218 -0.13184597 -0.10106219 0.2373721
0002b0 13 fb a9 3b 6e 95 67 bd a1 13 92 bd d0 46 53 3e
       0.005187401 -0.05653899 -0.0713265 0.20632482
0002c0 49 b8 e0 3e 43 8a 0d be bc a8 a6 3c 63 26 df 3d
       0.43890598 -0.13822274 0.02034413 0.108959936
0002d0 a0 c2 56 3d ec aa a8 3d b4 92 a7 3c 55 f5 59 3d
       0.052431703 0.08235726 0.020455696 0.053212482
0002e0 be 20 c7 3e e6 d6 d5 bc e4 16 c7 bc 6c 95 34 3e
       0.38892168 -0.026103448 -0.024302907 0.17635125
0002f0 b0 77 5a 3e b0 f5 05 3e 9b ec 53 bd 40 b0 42 3e
       0.2133472 0.13082004 -0.051739316 0.19012547
000300 c6 de da 3c e6 b5 7b be f6 94 65 3c a8 4c ba bb
       0.026717555 -0.24581107 0.014012566 -0.0056854077
000310 30 28 f4 3d ec f9 43 3e be 4d 01 bc c2 81 15 3c
       0.11921728 0.19138306 -0.00789207 0.009125175
000320 0c 5b 1e 3c f3 dd 4a be c5 1d 02 3d 9c 9d 04 bc
       0.009665262 -0.1981123 0.03176667 -0.008094218
000330 ac 69 98 bd a6 49 2f bc d3 82 e3 bc 1d d7 d9 bc
       -0.0744203 -0.0106987115 -0.027772343 -0.026591832
000340 44 75 c2 3d ff b5 77 be aa f1 a1 ba 50 c9 8b 3c
       0.09495023 -0.2419052 -0.0012355347 0.017063767
000350 0b a2 99 be 47 f8 aa be b5 72 8e 3b 33 99 1b 3c
       -0.3000644 -0.33392546 0.0043471702 0.009496975
000360 99 32 d0 3d 03 3f 52 bb 50 8a 2d 3c 4a e5 06 3d
       0.10165901 -0.0032081015 0.010592058 0.03293351
000370 45 15 0e 3e c0 8a df ba d1 03 e8 3b aa f8 07 3d
       0.13875301 -0.00170549 0.007080533 0.03319613
000380 88 c1 66 3d 85 b8 07 3d f6 55 c6 bc 13 bc 59 bc
       0.05633691 0.033134956 -0.024210911 -0.013289469
000390 96 c0 1a 3e 03 74 52 be 45 a1 63 3b 71 5b 28 3c
       0.15112528 -0.20552067 0.0034733575 0.010275708
0003a0 64 ca ac 3d 86 ed 79 3d c6 2e f1 3b f0 43 17 bd
       0.084370404 0.061017536 0.007360312 -0.036930025
0003b0 c4 85 df bb 43 e4 e6 be 96 57 b6 bc 78 82 29 bd
       -0.006821366 -0.45096025 -0.022258561 -0.04138419
0003c0 fb 7a 59 3e 94 38 94 3e ff d6 13 3b a5 28 40 bd
       0.2123832 0.28949416 0.0022558568 -0.04691376
0003d0 16 78 ea bd 3d 1d 0e bd 55 28 76 3c b3 2d 54 bd
       -0.11448686 -0.034695853 0.015024264 -0.051801395
0003e0 68 62 39 3e 3a b7 60 3e 3c 04 bd 3c d8 f4 0f 3e
       0.18103945 0.21944895 0.023073308 0.14058244
0003f0 15 9c 8e 3c b2 bd 08 3e 14 1f e6 3b 62 96 25 3e
       0.01740841 0.13353613 0.007022748 0.16170648

fcs1.bias f4 [512]
000000 94 c0 6e 3c 3b 3d 29 be 77 9f ad bd 69 b6 25 be
       0.014572281 -0.16527264 -0.08477681 -0.16182865
000010 fd 00 5a be e6 7f 06 3e c5 ac 8e be e8 c9 2e 3e
       -0.2128944 0.13134727 -0.27866188 0.17069209
000020 4c 49 63 be 8c 88 43 be bf f4 95 be 4e f9 66 bc
       -0.2219593 -0.19095057 -0.2928829 -0.014097525
000030 c5 8c a6 bc 23 30 e0 3d f1 ae b5 be e8 be 0d bd
       -0.020330796 0.10946681 -0.35485032 -0.03460589
000040 c0 21 00 be 10 b1 b2 bd 57 91 cd be eb 5c 75 3e
       -0.12512875 -0.08725178 -0.40149948 0.23961227
000050 74 76 09 3e 1e 12 9f be 03 e3 09 3d 25 2a 36 be
       0.13424093 -0.3106851 0.03366376 -0.17789514
000060 9f bd 5d 3e 2d 43 4a be 54 98 bd 3d 85 f5 76 bd
       0.21654366 -0.19752188 0.0925757 -0.06029274
000070 b5 e0 01 be 93 ee b8 bd 96 4e 9f be d9 11 9b 3d
       -0.12683375 -0.090298794 -0.31114644 0.075717635
000080 2d a1 68 3d 25 7f 72 3d e8 89 2c 3d e6 a0 85 be
       0.056794334 0.059203286 0.042123705 -0.26099318
000090 a9 07 9b be 08 51 2d be 63 1c bb be 09 60 22 bd
       -0.30279282 -0.16925442 -0.36545095 -0.039642368
0000a0 61 75 3c be f7 bc a9 bd de e0 64 be ad 9d 50 bd
       -0.18404151 -0.08287995 -0.22351405 -0.05093162
0000b0 87 17 70 be 30 61 b3 bd 49 00 40 be 7c 96 a0 be
       -0.23446475 -0.087587714 -0.18750109 -0.3136481
0000c0 73 27 81 3d 35 72 78 3d 98 fc 9b be 69 99 8c be
       0.063063525 0.06065579 -0.3046615 -0.27460793
0000d0 98 b4 3b be 16 6b 08 be 19 ce 90 be 5c e1 21 3d
       -0.1833061 -0.133221 -0.2828224 0.03952156
0000e0 6e 4f 45 bd fb 67 16 bd df b4 be bc 4b 49 8e 3d
       -0.048171453 -0.036720257 -0.023279605 0.06947573
0000f0 65 18 55 3d be 44 2f be ea c9 2e be aa c9 34 3d
       0.052025218 -0.17116067 -0.17069212 0.044137634
000100 4b 68 72 ba 08 f6 55 bc 0e 59 ce be 48 71 16 3e
       -0.0009247108 -0.013059147 -0.40302318 0.14691651
000110 b6 cd 8d be 25 21 98 3d 4c e1 47 3e 21 48 95 be
       -0.27696007 0.07428197 0.19519538 -0.29156592
000120 84 9b 2a be 65 a8 dd 3d d9 6b 5e 3e 1e 35 16 3e
       -0.16660887 0.10823134 0.21720828 0.146687
000130 ac df 02 be 6e 1d c6 bc 4d d2 a9 be 12 a1 c8 bd
       -0.12780637 -0.024183955 -0.3316826 -0.09796347
000140 85 91 0b 3e 6b fb 9a 3d 74 68 b5 3d e1 8c 71 be
       0.1362973 0.075674854 0.088578135 -0.23588897
000150 70 16 93 3d 33 d1 3c be 2d bf bb be db c4 b7 bd
       0.07182014 -0.18439178 -0.36669293 -0.08973094
000160 bb eb 32 3e 4c a7 a3 3d f8 6f 74 be a8 a3 9b bd
       0.17472737 0.07990894 -0.23870838 -0.07599574
000170 87 08 eb 3d c9 d7 36 be 01 90 94 bd e1 5c 6a be
       0.11476236 -0.17855753 -0.07254029 -0.22886993
000180 f5 ba b6 3c 6c 12 13 3e d6 dc 19 3e 0f 50 06 bd
       0.022305945 0.14362496 0.15025648 -0.032791194
000190 2e 3c 0b be b1 81 5f be 72 3e 29 3d d3 10 3a 3d
       -0.13597175 -0.21826817 0.041319318 0.0454262
0001a0 72 af 29 be ae c0 5a 3d 6e d2 8b be 2b 77 1d be
       -0.16570833 0.05340641 -0.27308983 -0.1537749
0001b0 8e 0c e0 3d 2a fc 06 be be 33 86 be cd fc 4b be
       0.109398946 -0.1318213 -0.2621135 -0.19920655
0001c0 8f 6f 9f bd 83 fd 42 be 29 91 ab be 23 de 94 3c
       -0.0778495 -0.1904202 -0.33509186 0.01817233
0001d0 8a ca 99 be 45 19 82 3d 47 7b 95 be 7c e5 29 be
       -0.30037338 0.06352476 -0.29195616 -0.16591448
0001e0 8c aa a8 be 6d 8d ae bd 27 f9 cb be f6 8a 18 be
       -0.32942617 -0.085230686 -0.39838526 -0.1489676
0001f0 43 75 4e be ac e6 db 3d cd f4 94 be 43 6f f6 3d
       -0.2016192 0.107373565 -0.29093018 0.1203294
000200 31 2d 10 3e 3d 29 97 bd 80 54 50 be 4e 88 7c be
       0.14079739 -0.073809125 -0.20344734 -0.24661371
000210 2a 5e 59 be 1f 94 ad bd d3 8b 21 3d 76 fb e1 3d
       -0.21227327 -0.084755175 0.039439987 0.110342905
000220 71 9b 96 be 84 2b a9 be 11 22 18 3d f9 1d 8c be
       -0.29415467 -0.33041012 0.037141863 -0.27366617
000230 1b 72 75 bd 98 e1 91 be c0 1e 72 be 6f 79 a8 bd
       -0.059923273 -0.28492427 -0.23644543 -0.082262866
000240 bf b1 41 3e c8 5c fa 3d 6e 8c 1f 3c ec 51 e6 3d
       0.18915461 0.12224728 0.009738071 0.11246094
000250 2d 9d 9c 3d c1 62 ff bd aa 83 b2 bd 6e 2c 20 be
       0.076471664 -0.12470008 -0.08716519 -0.15641949
000260 58 92 ee 3c 27 af 16 bd 9b d8 64 3c eb b9 8a be
       0.029122517 -0.036788132 0.013967658 -0.2709497
000270 6f ba 04 be 98 ac 54 bc 7c 48 ac bc a3 2d 05 bd
       -0.12961744 -0.012980603 -0.021030657 -0.032514226
000280 4c f6 27 be 68 aa a4 3d 87 90 f0 bd 07 f3 2d be
       -0.16402549 0.08040315 -0.117463164 -0.16987239
000290 cb 54 b1 be 0b ad da bd 5e 46 2c be b4 d2 97 3d
       -0.34635004 -0.106775366 -0.16823718 0.07413235
0002a0 0f 27 75 bd fe fc 73 be 03 54 71 bd 02 d2 a2 bc
       -0.059851702 -0.23826978 -0.05891801 -0.01987553
0002b0 35 81 1e 3e db 9c ce 3c 43 62 a0 3d f7 8e 01 be
       0.15478976 0.025221279 0.07831242 -0.12652193
0002c0 67 ce 22 3e ad de 9c be 22 3d ce bd e9 8a 1b 3e
       0.15899049 -0.30638638 -0.10070254 0.15189709
0002d0 5c 95 48 be 8a 74 e4 bc 03 b6 32 be ce e8 c1 be
       -0.19588226 -0.027887601 -0.17452244 -0.37872928
0002e0 03 46 06 be 3e 2b 30 be 13 71 29 bc 42 fe c4 3d
       -0.13112645 -0.17203996 -0.0103419 0.09618808
0002f0 06 a1 0b 3c 8d 1d e3 3c 44 ff b3 3d b6 00 25 3e
       0.008522278 0.027724052 0.087889224 0.16113552
000300 3d 87 06 bc f1 a8 54 3e 62 40 8d bd 1d b0 9c 3b
       -0.008210954 0.20767571 -0.06897046 0.0047817365
000310 1c fa 5c be a7 88 b7 be 0e 83 0b be 24 03 b6 be
       -0.21579784 -0.35846445 -0.13624212 -0.3554927
000320 5f a2 0b be 45 84 dc 3d bf ae fc 3d 2e a8 83 be
       -0.13636158 0.10767416 0.12338018 -0.25714248
000330 e8 6f 8f bd ba 0d b7 3d b3 4c 64 be 4e ff a0 be
       -0.07003766 0.08938165 -0.22294883 -0.31444782
000340 19 93 5a be 17 03 c1 3d d5 26 bb be 69 e7 15 be
       -0.21345176 0.094244175 -0.36553064 -0.14639057
000350 ee c2 24 3d 2e 84 b9 bc 8f 27 62 bd 6e 2b 09 3e
       0.040224962 -0.022646036 -0.055213507 0.13395473
000360 40 ff a4 be 2b 0c 35 bd 6a 44 a1 be 3a 07 d6 bd
       -0.3222599 -0.044201057 -0.31497508 -0.10450597
000370 2e 7a f2 3c 69 de 82 be 33 a8 9b be e4 9d f7 bb
       0.029599275 -0.2556031 -0.30401763 -0.007556664
000380 d8 bd 04 3e 6a 17 71 be 4f 7f b3 be b0 52 25 3e
       0.12963045 -0.23544088 -0.35058066 0.16144824
000390 3c 28 b9 3d f6 9a 9c be 28 e5 46 bd 1b 3f 3d 3d
       0.09040877 -0.30586976 -0.048558384 0.04620276
0003a0 41 4c 65 3d fb 61 9b be 7e 7b 07 be e7 7c 0a 3c
       0.055980925 -0.3034819 -0.13230702 0.008452631
0003b0 63 18 d3 bd 8e a6 19 bc c8 2d 2c 3d f8 eb 5a bd
       -0.10307386 -0.009378089 0.042035848 -0.053447694
0003c0 d8 5e de 3d f8 47 d0 be 9f 1f 5a 3c 8b 5b 6b be
       0.10857934 -0.40679908 0.013313203 -0.2298414
0003d0 3b 68 9b be e9 b0 28 be 30 2a 18 be 6d ba 93 be
       -0.3035296 -0.16473736 -0.14859843 -0.2885317
0003e0 39 f3 9e bd 01 d3 7b 3e bb 87 87 be 10 b2 02 bd
       -0.07761235 0.2459221 -0.26470742 -0.031908095
0003f0 53 6a 1c be fc 9f ad bd eb 76 8a 3d f4 ed cd be
       -0.15274934 -0.0847778 0.06760963 -0.40220606

fc2.weight f4 [400, 514]
000000 f7 cc b3 bb fb 58 a1 bc 09 1a 31 3d c5 c9 ac bd
       -0.00548708 -0.01969575 0.04323772 -0.08436922
000010 9a b6 0f bc 4a e2 be bc 4e e7 b6 bc 18 84 b6 3c
       -0.008771563 -0.023301262 -0.022327092 0.022279784
000020 71 59 67 3c f9 23 0d 3c 38 cd bf bd 9c ac 10 bd
       0.014120446 0.008614534 -0.09365314 -0.035320863
000030 07 58 2e bd 82 38 95 bd 9a ec 9e bd 4c 6e ba bb
       -0.04256442 -0.07286169 -0.07759972 -0.005689418
000040 b0 fa ff 3a b5 97 46 bd 71 93 67 bd 5a 4c ce bd
       0.0019529667 -0.048484523 -0.056537095 -0.10073157
000050 56 96 c1 3d 5f 5b 55 be 3e 73 04 bc f9 09 8b bc
       0.094525024 -0.20835637 -0.0080841165 -0.016972529
000060 5b d5 52 bd fb f9 00 bd 46 08 e5 bd eb 09 ad 3c
       -0.051473003 -0.0314884 -0.11183219 0.021122893
000070 68 99 11 be c6 07 c0 3b 2f c0 fa bc e2 b8 b2 bc
       -0.14218676 0.0058603017 -0.030609218 -0.021816675
000080 62 7a d5 bc d9 21 33 bd 81 73 28 3d 34 85 80 bd
       -0.026059333 -0.04373345 0.041125778 -0.062754065
000090 51 61 98 bd a8 21 5a 3b 5b 69 55 3c 56 8e 66 bd
       -0.07440437 0.003328422 0.013025607 -0.056288086
0000a0 45 b2 66 be 21 c6 47 bd 9f 88 e9 be b4 66 17 bf
       -0.22528942 -0.048772935 -0.45612046 -0.5914109
0000b0 8a 7d 15 3b 9a 86 45 bc 9a c9 91 3c a2 ac 1d bd
       0.0022810423 -0.012056017 0.017796326 -0.038494714
0000c0 71 81 8f 3c 78 7b 0b be 53 c7 8f 3c 14 5e 54 bd
       0.017517777 -0.13621318 0.0175511 -0.051847532
0000d0 86 a4 b3 bd d1 81 8e 3b b7 41 90 bc 0f f3 b9 bd
       -0.08771615 0.0043489714 -0.01760946 -0.09079563
0000e0 d6 f2 44 bb f7 a7 06 be ed 2d f3 3c 10 43 a3 bc
       -0.0030051968 -0.13150011 0.029684985 -0.019929439
0000f0 c8 a0 8a 3c 00 07 47 bb c8 ec 3d bd 6b 8d 8d 3b
       0.01692237 -0.0030369163 -0.04636839 0.004319837
000100 0a fa 24 be 32 38 5c bd c1 56 85 3c 90 2f b9 bc
       -0.16111007 -0.05376453 0.016276719 -0.022605687
000110 ad 1e 94 bd ef f6 e2 bc b0 a9 f8 3c 60 11 4c bd
       -0.072324134 -0.027705638 0.03035435 -0.049821258
000120 e3 d0 17 bf 1c 2b 3b 3d 9f 96 8e 3d 44 ec 63 be
       -0.5930311 0.04569541 0.069623224 -0.22258097
000130 06 bc 08 bd d5 f0 47 bd d6 ff bd bc 6f bc ce bc
       -0.033382438 -0.04881366 -0.023193281 -0.025236337
000140 6b c8 6e 3c 0c 50 6d bd 10 6c b8 bd 69 48 d0 bd
       0.014574151 -0.057937667 -0.09004986 -0.10170061
000150 9f 07 2b bd d5 29 9a 3b 13 7a d8 bb 5f 2c f7 bd
       -0.041755315 0.004704694 -0.0066063493 -0.1206901
000160 f6 8a 2c 3c ca 34 db bd 6c 21 2c 3c 82 04 45 be
       0.010531178 -0.10703428 0.010506015 -0.19240001
000170 35 cd 1f bc 96 a5 9d bc ee 59 75 bc 35 83 20 be
       -0.009753515 -0.019243997 -0.014975054 -0.15675052
000180 e9 01 ef 3d 12 2b c1 3c 63 f8 1a bd f4 1a 3f bd
       0.11670286 0.023580108 -0.037834536 -0.046656564
000190 89 dc b7 3d 73 62 1b bd 88 c3 4d bd 66 c5 d2 bd
       0.089776106 -0.037935685 -0.0502353 -0.10291557
0001a0 85 82 87 bc d0 05 24 3c 19 0b dd bb 8a b0 49 bd
       -0.016541729 0.010011151 -0.0067457077 -0.049240626
0001b0 25 29 5b bd 83 3e 53 be 77 03 49 bc 6b f0 ab bc
       -0.053506035 -0.20629315 -0.0122688925 -0.020988664
0001c0 46 b5 11 bf 81 d9 14 3c 4a 59 b6 bd 83 41 e5 3d
       -0.56917226 0.00908506 -0.08903749 0.11194136
0001d0 86 3e 6b bd cf cb d3 bc 24 7e 78 bb ca 0f c2 bd
       -0.057432674 -0.02585402 -0.0037916983 -0.09475668
0001e0 99 60 c2 bb ad 40 b7 3d bc dc 43 bd f4 b1 42 bd
       -0.0059319255 0.08947883 -0.04781793 -0.04753299
0001f0 60 f6 b6 bb 17 d8 4c be 98 cd 49 bd 9c 46 2a bd
       -0.0055835694 -0.20004307 -0.049268335 -0.041571245
000200 f6 ff de bc 26 c1 3f bd 62 f7 6a bd 00 1b c4 3c
       -0.027221661 -0.04681506 -0.05736483 0.023938656
000210 01 32 56 be 88 1a 1b 3e d4 86 e8 bc d8 a7 52 bc
       -0.20917512 0.1514684 -0.028384604 -0.0128574
000220 0f 72 0d be cf 91 5d 3d b2 68 43 be 1c 68 32 bd
       -0.13813041 0.054094132 -0.19082907 -0.043556318
000230 65 4b f3 bd 88 4b b8 bc b8 90 3f 3d 07 b5 b5 be
       -0.11879615 -0.022496954 0.046768874 -0.35489675
000240 43 cc 85 bd 1f cd 08 3d ad c1 c3 bd d1 3f 77 bd
       -0.065331005 0.033398744 -0.09558425 -0.060363594
000250 2a 66 62 3c 60 14 2e 3d c1 4e 20 bd b7 d1 08 be
       0.013818303 0.0424999 -0.039137606 -0.1336125
000260 fa b3 66 bd 80 e7 f2 3c 9e 6a f5 bc 81 9c 24 bb
       -0.056323983 0.029651403 -0.029958066 -0.0025117698
000270 20 20 c0 bd 2c 4e 89 3c 33 a3 3a 3c e6 c7 2b bd
       -0.09381127 0.016760908 0.011391449 -0.041938685
000280 cf e1 ac bc 82 f1 d0 bd 89 1a 3d bb 4d 4e 1e 3b
       -0.021103768 -0.10202314 -0.0028854928 0.0024155558
000290 9c 1f 3c 3c 0b be cb be 93 c1 de bc d9 4d fa bc
       0.011482146 -0.3979343 -0.027191913 -0.030554699
0002a0 07 ad 70 bd 95 90 52 bd 31 41 52 bd 89 45 24 be
       -0.05875876 -0.051407415 -0.051331703 -0.1604215
0002b0 90 b2 0f bd f5 2f 91 bc 8d 86 8b bd f7 f2 d1 bc
       -0.0350824 -0.017723063 -0.06812773 -0.02562855
0002c0 50 7e ae 3c 6f 4a b8 3c 90 3d ef 3c d0 4f cd 3c
       0.021300465 0.02249643 0.02920416 0.025062472
0002d0 4e fe 9e be 3a 9f fd bc 4d 71 b6 bd e9 fc 3f bd
       -0.31053394 -0.030959714 -0.08908329 -0.046872053
0002e0 dd 8d 94 3c 69 19 d2 bb ad cd c2 bd 27 db 8c bd
       0.018134052 -0.0064117205 -0.09511886 -0.068777375
0002f0 dd ac 49 bd a0 2c ff bc 06 e1 27 ba 0b 9c 3a 3c
       -0.04923712 -0.031149209 -0.00064040755 0.011389743
000300 f3 e0 6c 3d 86 d4 ef 3d 8d b8 51 bd 3d bc 4a bd
       0.057831716 0.117104575 -0.051201392 -0.049495924
000310 0d 87 26 be 82 c3 02 3d 04 82 4f bd 33 8c 49 3c
       -0.16262455 0.031924732 -0.050661102 0.0123014925
000320 46 f1 f2 3c 2b f9 63 bd 3b 89 37 bd d6 5d 89 3c
       0.029656064 -0.055657547 -0.044808608 0.016768377
000330 a6 6d 24 bd 2e 7c 32 bc 27 74 38 be 34 c9 4d be
       -0.04014363 -0.010893865 -0.18013059 -0.20096284
000340 b4 f8 32 bd 93 9f fb 3c 4f 96 07 bd 2b e2 b7 bc
       -0.043694213 0.03071574 -0.03310233 -0.022446712
000350 08 63 11 be a8 74 13 bd 8d ec 2b bd 64 ce e3 bd
       -0.14197934 -0.035999924 -0.04197364 -0.1112335
000360 9b b1 c3 3c 49 a5 fb 3c 1a af c9 3d ba b6 1c 3d
       0.0238884 0.030718463 0.09847851 0.0382602
000370 4a 35 d0 bd e1 ac d7 3c e8 b1 dc bc a5 bc 98 bb
       -0.10166414 0.026327552 -0.026940301 -0.00466116
000380 c5 56 d8 be f4 73 e1 bc ff e8 c1 bd 10 04 ff 3c
       -0.422537 -0.027521111 -0.094682686 0.031129867
000390 a3 d8 6d bd a1 a5 29 bc f1 1e f8 bb 36 4c 50 bd
       -0.05806793 -0.01035443 -0.007572048 -0.05085393
0003a0 00 56 53 bd f7 d9 c3 bb c3 ac 14 3d ea 0a 86 be
       -0.051595688 -0.005976911 0.03629757 -0.26180202
0003b0 5e b5 e1 bd 2e c9 2f be aa 36 53 be 32 b5 42 bd
       -0.11020921 -0.17166588 -0.20626321 -0.047536083
0003c0 ad cf 22 bf e2 c8 64 3c 98 13 7d 3c 70 33 aa bc
       -0.6359814 0.01396391 0.015446566 -0.02077648
0003d0 ba 1a 8a bc 42 71 42 bd a8 bf b2 bd 68 34 53 bd
       -0.016858447 -0.047471292 -0.08727962 -0.05156365
0003e0 38 4f 35 bd b2 b3 09 be df 40 b7 bd f0 9d da 3a
       -0.044265002 -0.13447455 -0.0894792 0.0016679149
0003f0 ff 0e 1e bc 27 4e ce be 35 c5 9a bc 87 04 98 bd
       -0.00964713 -0.40294 -0.018892864 -0.074227385

fc2.bias f4 [400]
000000 d8 41 a5 bd 60 84 27 bd 45 5a 30 bd 80 b1 20 3b
       -0.08069199 -0.040897727 -0.043054838 0.002451986
000010 a3 e0 3d be 76 52 7b bd 3d da 94 3c 1c cd a0 bd
       -0.18542723 -0.061357938 0.01817047 -0.078516215
000020 df 7f 78 bd d3 0d d5 bd 3d 14 13 bd 0e 0c ea bd
       -0.060668822 -0.104030274 -0.035907973 -0.114280805
000030 a1 70 24 bd f8 14 b1 bc 3b 14 e6 3e f8 8b da bc
       -0.040146474 -0.021616444 0.4493731 -0.02667807
000040 16 56 09 3c 59 03 16 bd 59 2f 14 3d 19 78 18 bd
       0.008382341 -0.036624286 0.036177967 -0.03722391
000050 da 9d a2 bd 7b fd 42 bd e0 6a d3 bd 06 63 d3 3c
       -0.07940264 -0.04760502 -0.10323119 0.025804054
000060 ed bd 96 bd 59 87 75 be a5 02 2f bc ee 3c 9c bd
       -0.07360444 -0.23977412 -0.010681783 -0.07628809
000070 da 15 59 bd 1a 8e ce bc 8a c2 a2 bd 6f 46 1e bd
       -0.052999355 -0.025214244 -0.07947262 -0.03864139
000080 d4 11 a6 bb a4 47 81 bd 5e bb 93 bd 5b 72 34 bd
       -0.0050680432 -0.063124925 -0.07213472 -0.04405437
000090 f4 4a 34 be 87 ab 0f 3e 60 37 18 bd 4f e2 a1 bd
       -0.17606717 0.14030276 -0.037162185 -0.07904493
0000a0 f8 e3 cb ba 20 9e 74 3c ef 59 09 bd c2 ee 5d bd
       -0.0015555611 0.014930278 -0.033533033 -0.054182775
0000b0 f9 46 96 bd bf 49 49 bc 47 41 c2 bc a7 ca ab bd
       -0.07337756 -0.012285649 -0.023712767 -0.08388262
0000c0 34 fc 08 bd 73 84 8b bd 69 81 b2 bc fc 6d 40 bd
       -0.033443645 -0.06812372 -0.021790223 -0.04697989
0000d0 04 0a 3d bc 0b 0c 8e 3d d1 5b 00 bd c9 ee 17 bd
       -0.011538032 0.06935891 -0.031337563 -0.037092958
0000e0 5b 56 e2 3e eb 78 58 bd 49 ec 49 be 2c d7 9a bd
       0.4420651 -0.05284969 -0.19719042 -0.07560572
0000f0 b8 ad 04 bd ab 34 8d bd 3e 64 61 bd 56 de 13 3c
       -0.032392234 -0.06894811 -0.05502724 0.009025177
000100 67 03 5f bd ee 2f 8a bd a2 25 57 3e 96 c9 11 bd
       -0.054446604 -0.06747423 0.2101045 -0.035592638
000110 91 4e 94 bd 02 3a 50 bd 4d 94 f0 bc b9 c9 0e be
       -0.07241548 -0.05083657 -0.02936759 -0.13944139
000120 66 9e e3 3a 21 3a 6e bd 3f 8d 1e bd 91 5d 5c 3d
       0.0017365932 -0.058160905 -0.03870892 0.05380017
000130 d0 7b df 3c 1b 51 67 3c 08 8a 8c bd e6 dc 1c bd
       0.027280718 0.014118458 -0.06862265 -0.038296603
000140 44 b8 7e be e9 b0 1e be b7 0b 80 bc 14 02 bc bc
       -0.2487498 -0.15497173 -0.015630586 -0.02295021
000150 92 de 60 be 13 6f 80 bd 31 e1 83 bd 76 6a 21 bd
       -0.21959904 -0.06271186 -0.06439436 -0.03940817
000160 f7 9c 9c bd b0 30 4c bd 4b c7 cb bc ee f2 18 bb
       -0.07647126 -0.04985112 -0.024875304 -0.0023338157
000170 12 bc b3 bb 75 f2 dc bd fb a4 54 bd ca 46 97 3d
       -0.005485066 -0.107884325 -0.05191515 0.07386549
000180 ec 0f 32 bd 3e e3 5c bc 09 06 c3 3a 28 e8 c0 bb
       -0.043472216 -0.013481913 0.0014879118 -0.00588705
000190 a5 93 45 bd 99 2c b4 bd ec c5 57 bd 7f 24 2e b9
       -0.048236508 -0.08797569 -0.052678987 -0.00016607529
0001a0 21 19 05 be 39 df a3 bc 22 54 d1 bc d4 94 0f bd
       -0.12997867 -0.020003902 -0.025552813 -0.035054043
0001b0 ea dd 1a be 62 b5 af bb 11 fc 29 bd c9 60 bc 3b
       -0.15123716 -0.0053621987 -0.041500155 0.0057488424
0001c0 2b 1f 98 bb 9b d5 ec bc 52 21 35 bd 5e a6 05 bd
       -0.0046423874 -0.028910449 -0.04422123 -0.032629363
0001d0 95 7b 99 bd 96 c0 7e bd 1e 8b 83 3c a6 1c 90 bd
       -0.074942745 -0.062195383 0.016057547 -0.07036714
0001e0 46 1c 3f 3c 75 10 5f bd 41 b5 69 be 56 23 36 bd
       0.011664456 -0.054459054 -0.22823049 -0.044467293
0001f0 e9 6d 11 bd 11 04 65 bd b3 cb ca bc df 7a 26 bd
       -0.03550521 -0.05591208 -0.024755334 -0.040644523
000200 a5 5b 67 bd ef 20 8c 3e cc 3b 85 bd 85 b5 a8 3d
       -0.056483883 0.27368876 -0.06505546 0.08237747
000210 0c 12 06 bd 06 fb e8 bd ad ab 75 3c 57 2c 06 3f
       -0.032732055 -0.11376004 0.014994544 0.5241141
000220 9b f9 d7 bc 0e 95 bd bc 5f e4 48 bd ce 67 4e bc
       -0.026364138 -0.023142364 -0.049045917 -0.012597991
000230 ff 46 1e 3e 6c 24 28 bd d1 fa 16 3b 56 e3 9d bd
       0.1545677 -0.04105036 0.0023037682 -0.077093765
000240 50 bb f0 bb 29 8c 82 bd 0d 76 06 3e 26 dd 78 bd
       -0.007346548 -0.0637439 0.1313097 -0.06075778
000250 e9 88 a1 bd 90 d9 51 3a 7c 5b d6 bc 81 32 50 bc
       -0.07887442 0.00080051366 -0.02616667 -0.012707354
000260 9a 1f 36 bd e7 a1 a0 bd 5b 24 ab bd 08 40 03 bd
       -0.04446373 -0.078433804 -0.08356544 -0.032043487
000270 8a 33 20 bd d3 80 2f 3c b7 f8 9f bd 60 bc cd bc
       -0.03911165 0.010711866 -0.078111105 -0.025114238
000280 24 12 d3 3c 1b 10 a1 bd c5 63 9e 3d e9 e3 99 3c
       0.025765486 -0.078644 0.07733873 0.018785434
000290 a8 5d 3b bd fd 60 28 be 67 79 82 bd 4e d7 9e 3d
       -0.045743614 -0.16443248 -0.06370812 0.0775591
0002a0 dd a7 ee bc 1d 23 b9 bc c0 58 47 bd 79 e6 69 bd
       -0.029132778 -0.022599751 -0.048668623 -0.05710456
0002b0 bc 21 3e bd bd c0 b3 bc a5 2b 03 bd 28 f6 62 bd
       -0.04641889 -0.02194249 -0.032024045 -0.055410534
0002c0 5e d0 8a bd 32 1d 20 bd e6 01 e2 bc e0 c9 4b 3e
       -0.06778024 -0.039090343 -0.027588796 0.19901228
0002d0 c9 95 06 bc e6 5b 92 3d 88 79 b5 bc f3 8a 86 bc
       -0.0082144225 0.071464345 -0.022152677 -0.016423678
0002e0 a0 0b 4c bd 27 52 c2 bc b8 1d 21 3e 9e 02 88 bc
       -0.049815774 -0.023720814 0.15733993 -0.01660281
0002f0 ea 67 17 3e 44 d6 9f bd c1 5b d3 3e d5 a9 09 bd
       0.14785734 -0.0780454 0.4128094 -0.03360923
000300 05 59 73 bb 9c d4 7a 3c f1 ed 91 bd 63 0e 0f bd
       -0.0037131917 0.015309479 -0.07125462 -0.03492583
000310 ce 6e 5d bd ba b3 63 bd cf fe bb 3d 2e a0 c7 bb
       -0.05406075 -0.055591322 0.0917946 -0.006092093
000320 c4 79 7d bd 93 5f 83 bd 08 1e 0f 3d 8b 08 70 3e
       -0.061883703 -0.06414714 0.03494075 0.23440759
000330 09 0e b8 bb e8 d2 61 bd a2 d2 8f bd e8 53 3b be
       -0.0056169075 -0.055132776 -0.07022597 -0.18293726
000340 5e 79 e9 bd 09 e5 2c 3d e1 fa 94 bd a0 d7 bb bc
       -0.11400102 0.042210612 -0.07274414 -0.022929966
000350 c8 27 99 bc b3 ce af 3d 36 be 90 3c 02 98 01 3d
       -0.018695727 0.085843466 0.017668825 0.031639107
000360 7c ee ab ba 9e 18 bf bc 90 4f 18 bd f7 9c c0 bc
       -0.0013117339 -0.023327168 -0.03718525 -0.023512347
000370 8b e7 0f 3d 35 9e 82 bd 34 9b 21 bd 27 6e c0 bd
       0.035132926 -0.06377832 -0.039454654 -0.0939601
000380 a0 e7 90 bc 65 3d 23 bd da ab cb bc 94 3d 87 bd
       -0.017688572 -0.039853472 -0.024862219 -0.06603542
000390 c1 87 55 3d a0 07 9a bd 2f ce 0c 3e 1d 2a 12 3d
       0.05213142 -0.075209856 0.13750528 0.035684694
0003a0 a3 cd 85 bd 66 b2 72 bc ee d0 9a bd b5 d9 2d 3b
       -0.06533363 -0.014813041 -0.075593814 0.0026527469
0003b0 6a 30 bf bb 25 25 31 bd 55 cb 57 bc 27 b0 65 bd
       -0.005834629 -0.043248314 -0.013171037 -0.056076195
0003c0 ad a6 82 bd 8f 9c a6 bd d1 dd 9e bc 2c ba d9 bc
       -0.06379447 -0.0813533 -0.01939288 -0.026578031
0003d0 9c a5 9b 3b 24 0b 11 bd 99 82 78 bd 66 e8 96 bd
       0.004749967 -0.035411015 -0.060671423 -0.07368545
0003e0 6c 21 05 bd 5d 9e 21 bc 12 d9 20 bd a5 d0 2c bd
       -0.032502577 -0.009864417 -0.039269514 -0.042191166
0003f0 d0 c5 d4 bc aa a3 c3 bc 66 a1 64 3e 24 80 42 bd
       -0.02597323 -0.023881752 0.22327194 -0.047485486

fc3.weight f4 [1, 400]
000000 c0 f4 f1 be c8 19 82 bb 97 d9 d2 3b 4b ae 82 bb
       -0.47257042 -0.0039703585 0.00643463 -0.0039880625
000010 97 cf f3 bc 72 01 6b 3a f9 47 ca 3d 72 51 cb 3a
       -0.029762072 0.0008964754 0.09877009 0.0015511943
000020 62 8f b3 3a 6f 01 d0 bd 71 96 f2 3c 21 e3 94 bd
       0.0013699348 -0.101565234 0.029612752 -0.07269884
000030 e2 39 e7 bb 45 40 f7 3d e6 b3 3f 3c 2c fa 25 3b
       -0.0070564607 0.12072805 0.011700606 0.0025326116
000040 14 6d 48 3b 04 78 37 3b 5d f3 3b 3d 07 7d 20 bc
       0.0030582594 0.002799512 0.045886386 -0.009795434
000050 7a 33 da bd fb b6 49 ba 59 30 93 3d f6 dc 38 3d
       -0.106543496 -0.0007694808 0.07186956 0.0451326
000060 71 8d 3e 3c b5 c8 8a bd d1 46 b6 3b fa 95 3e bb
       0.011630402 -0.06776563 0.005562641 -0.0029081092
000070 e6 94 24 bb 94 31 06 3b 44 9e b2 bc 93 c0 97 3c
       -0.0025113164 0.0020476328 -0.021803983 0.018524444
000080 6d 49 43 3b 99 72 9f bb 0b 46 ff b8 89 c1 39 bc
       0.0029798404 -0.004865956 -0.00012172394 -0.011337646
000090 e9 9a 8d bd 0b 5b 1a 3d f7 31 c1 bd 95 99 64 3b
       -0.069143124 0.03768448 -0.09433358 0.003488158
0000a0 0d 0f bb 39 b7 5e c1 3d 32 a9 45 be 6b f9 60 bb
       0.00035678633 0.094418935 -0.19302824 -0.0034328352
0000b0 83 60 03 3c 18 92 2d 3b 77 d5 69 3c e1 f1 e0 3b
       0.008018616 0.0026484784 0.014272085 0.0068647717
0000c0 bc ec 3b 3c c9 37 24 3c dc 26 d4 bd f6 61 57 3c
       0.011470016 0.010023066 -0.10358974 0.013145914
0000d0 de d5 f5 bb 68 9c 2b bd 59 f9 8a 3b 3b 1c d8 bb
       -0.0075023016 -0.041897207 0.0042411503 -0.006595162
0000e0 e6 e4 fe 3b af 41 17 bc 6e f1 3f bd d7 8a 8c 3d
       0.0077787517 -0.009231969 -0.046861105 0.06862419
0000f0 6a 35 1c 3b 4e 87 5e 3b 28 6f d7 3c 5b a8 8f 3d
       0.0023835548 0.003395516 0.02629812 0.07014533
000100 35 ae aa bc dd 2c 1a 3b 04 d3 81 3b c4 fc ea bd
       -0.020835022 0.0023525276 0.0039619226 -0.114739925
000110 8e 00 d1 bc 84 c0 c4 bc 63 2e b6 3a 25 de d8 bc
       -0.02551296 -0.02401758 0.0013899322 -0.026473114
000120 5d 06 51 3d 1f b4 65 bb 39 6a e8 3b 20 ba 2a 3d
       0.05103146 -0.0035049987 0.007092741 0.04168141
000130 82 d6 77 3d 66 8e 0c bd 9b d2 b0 ba f7 f7 57 bc
       0.060507305 -0.03431549 -0.00134905 -0.013181678
000140 53 1c fa bc ad aa 05 be 0f db 6f 3a 86 3c 1d 3d
       -0.030531084 -0.13053389 0.0009149769 0.038387798
000150 67 ff d7 3c 84 1a fa bb 52 e6 9f bc 22 0e 49 3c
       0.026366903 -0.0076325554 -0.019519005 0.012271436
000160 15 88 eb bb ab e7 81 ba 0f 5e bb 3b 87 c0 63 3d
       -0.007187853 -0.0009910961 0.005718 0.05560353
000170 e3 67 23 bc fa f8 b0 3c 0c de 35 3c 8a b8 90 3c
       -0.009973499 0.021603096 0.011100303 0.01766612
000180 0f b9 99 bb 8e 97 f1 ba e6 d8 84 3d 57 c3 73 3a
       -0.00469125 -0.0018432008 0.064866826 0.0009298822
000190 c1 72 2a 3b 4c 55 7f bc ec 7d 33 3c 3e 69 05 3a
       0.002600834 -0.015584301 0.010955315 0.00050892297
0001a0 f7 bf ce bd 91 ae 2b 39 f0 e1 04 38 b6 a8 c7 bb
       -0.10095208 0.00016372862 3.1681673e-05 -0.00609311
0001b0 c6 c4 8c bd 2b 34 38 3c 32 d5 de bb f9 44 99 bb
       -0.06873469 0.011242907 -0.006800317 -0.0046774116
0001c0 9c d7 53 3b fd d1 30 3c c2 24 04 3d 0a a3 41 bc
       0.0032324558 0.010792253 0.032261617 -0.011818657
0001d0 8f 61 1a 3c af 4a de bd 44 0c 2e bb df f6 1b bd
       0.009422674 -0.108540885 -0.0026557604 -0.03807723
0001e0 cd e6 df bb 3a 4c 50 3b 9a 93 3d bd 1b 5d e0 3b
       -0.0068329335 0.0031783716 -0.046283342 0.0068470365
0001f0 b6 0f bd 3c 6c 43 3e be 82 26 42 bd fe f0 29 3d
       0.02307878 -0.18580407 -0.047400005 0.041489594
000200 36 ea 2b bc cc c5 ea 3c 06 17 e8 3b 77 30 f0 bd
       -0.010492852 0.02865877 0.0070828227 -0.11727994
000210 3e 74 d0 3c 22 d7 d8 bd 24 15 af bb 72 6a 4c 3c
       0.025446054 -0.10587908 -0.0053430963 0.01247655
000220 8a 02 bb 3d 01 cb f1 ba 2c 9e 4f bb 2c bf 91 bb
       0.09131344 -0.0018447341 -0.003167997 -0.0044478383
000230 b4 63 5f 3c 18 b3 1e bb f4 e9 0f 3c 58 8f 0a 3c
       0.013634611 -0.0024215635 0.008783806 0.008457027
000240 00 3f 05 bb e3 e2 06 3d 6b 40 26 3c b2 61 51 bd
       -0.002033174 0.03293122 0.010147194 -0.05111856
000250 ee c6 9d 3b 96 e8 36 3c 5d d4 72 ba b6 4a 8c 3b
       0.004814974 0.011163851 -0.0009263212 0.004281367
000260 73 e5 70 bc d0 a3 7e 3b 19 fb e7 bd 3d 5b 04 bc
       -0.014703142 0.0038854964 -0.1132719 -0.0080783935
000270 cf 9c 82 bb 0a b5 d4 ba ac c0 27 be 55 2e 36 3b
       -0.003985978 -0.001622827 -0.16382092 0.0027798612
000280 6d 65 b2 3d d7 27 11 3c 72 40 9d bd d5 26 7f 3a
       0.08710752 0.008859596 -0.076783076 0.00097332645
000290 d7 9a 56 3c 8b 70 8b bb 34 8a 75 3d 02 8a 66 3d
       0.01309844 -0.0042553595 0.059946254 0.05628396
0002a0 fb 20 0a 3d fd 13 01 3c 4c 84 70 3b 5f fa 30 bc
       0.03372286 0.007878301 0.0036699949 -0.010801881
0002b0 dd e0 90 bb f6 ec 03 3c 71 68 f5 39 47 38 18 bc
       -0.004421337 0.008052101 0.00046807856 -0.009290761
0002c0 39 51 38 3c 62 f9 9f bb f0 9d 51 3d 9d 12 8e bd
       0.011249834 -0.0048820237 0.05117601 -0.06937144
0002d0 13 96 6b 3c ae 7f 57 bd e8 f3 06 bb 3a 23 49 3c
       0.014379042 -0.052612 -0.0020592157 0.012276465
0002e0 1a 73 51 3c c5 e6 65 bb c2 6d 8d 3c 4c 0a 09 3c
       0.01278379 -0.0035080176 0.01726425 0.008364271
0002f0 e5 dc 43 3d 51 27 36 3d f1 88 0b 3c 41 78 38 bc
       0.047818083 0.04447109 0.008516536 -0.0112591395
000300 ce 44 97 ba 3e 7f 11 bc 36 bd e2 bc 1e 22 c9 ba
       -0.0011540891 -0.008880435 -0.027678113 -0.0015345251
000310 19 8a 9f bb 85 c5 8b 3c 54 4b 24 3c d1 cc 03 bc
       -0.0048687574 0.017061958 0.010027725 -0.0080444375
000320 70 97 04 bc e9 4f 49 be 74 94 c5 bc cc 17 6f 3c
       -0.008092746 -0.1965939 -0.02411864 0.014593076
000330 05 3f 52 3a 0a 88 1b 3b bb 5d f9 3b 23 65 cd bc
       0.0008020255 0.0023732209 0.0076100505 -0.02507264
000340 92 e5 80 3d f4 cd 1c 3d 18 02 45 3e 2f 8f f5 ba
       0.06293787 0.03828235 0.1923908 -0.0018734689
000350 4f 6a ff bc 72 f8 da 3c b6 a8 91 3c f5 8d 4b bd
       -0.031178622 0.026729796 0.017780643 -0.049695928
000360 f7 6f 83 3c b0 7d 84 bc 01 9b b3 3b b8 bc 47 bc
       0.0160446 -0.016173214 0.0054811244 -0.01219099
000370 a0 ed 27 3c fb 2a 8d bd 76 c6 3c 3c e4 b8 34 3d
       0.010249525 -0.068929635 0.011521926 0.044121638
000380 26 3c 9c 3b 01 b0 46 bb 48 00 5b bb ce 30 cb ba
       0.0047679124 -0.003031731 -0.0033416916 -0.0015502216
000390 b4 ed 0b 3d ef d1 fc ba 22 da b8 3c 94 91 e5 bd
       0.03416224 -0.0019288639 0.022564951 -0.112094074
0003a0 73 c0 05 be af 91 2c bc 22 8a 17 bd 5c a5 fe bb
       -0.13061695 -0.010532781 -0.036996968 -0.007771177
0003b0 77 8d 66 3b ae ef 1b 3c ef 75 55 bb 00 9b 83 3b
       0.0035179534 0.009517593 -0.0032571515 0.00401628
0003c0 b6 e6 54 3c 07 ad 5e bd e9 91 c1 3a 57 b9 05 bb
       0.012994459 -0.05436423 0.0014768216 -0.002040466
0003d0 ba 4b 0d bb 43 5a d2 ba f7 d1 9d 39 0c 49 a8 bb
       -0.002156003 -0.0016048629 0.0003010181 -0.005135661
0003e0 02 33 10 3c aa 50 d0 bd 35 e1 da bb e0 e6 35 3b
       0.008801224 -0.101716354 -0.006679679 0.002775602
0003f0 74 c5 58 3b 7a 84 8b bb 0a 00 48 3c 26 84 0a 3b
       0.0033076676 -0.004257736 0.012207041 0.0021135896
